<?xml version="1.0"?>
<net name="torch_jit" version="11">
	<layers>
		<layer id="0" name="input" type="Parameter" version="opset1">
			<data shape="?,3,256,256" element_type="f32" />
			<rt_info>
				<attribute name="old_api_map_element_type" version="0" value="f16" />
			</rt_info>
			<output>
				<port id="0" precision="FP32" names="input">
					<dim>-1</dim>
					<dim>3</dim>
					<dim>256</dim>
					<dim>256</dim>
				</port>
			</output>
		</layer>
		<layer id="1" name="onnx::Conv_280_compressed" type="Const" version="opset1">
			<data element_type="f16" shape="64, 3, 7, 7" offset="0" size="18816" />
			<output>
				<port id="0" precision="FP16">
					<dim>64</dim>
					<dim>3</dim>
					<dim>7</dim>
					<dim>7</dim>
				</port>
			</output>
		</layer>
		<layer id="2" name="onnx::Conv_280" type="Convert" version="opset1">
			<data destination_type="f32" />
			<rt_info>
				<attribute name="decompression" version="0" />
			</rt_info>
			<input>
				<port id="0" precision="FP16">
					<dim>64</dim>
					<dim>3</dim>
					<dim>7</dim>
					<dim>7</dim>
				</port>
			</input>
			<output>
				<port id="1" precision="FP32" names="onnx::Conv_280">
					<dim>64</dim>
					<dim>3</dim>
					<dim>7</dim>
					<dim>7</dim>
				</port>
			</output>
		</layer>
		<layer id="3" name="/feature_extractor/feature_extractor/conv1/Conv/WithoutBiases" type="Convolution" version="opset1">
			<data strides="2, 2" dilations="1, 1" pads_begin="3, 3" pads_end="3, 3" auto_pad="explicit" />
			<input>
				<port id="0" precision="FP32">
					<dim>-1</dim>
					<dim>3</dim>
					<dim>256</dim>
					<dim>256</dim>
				</port>
				<port id="1" precision="FP32">
					<dim>64</dim>
					<dim>3</dim>
					<dim>7</dim>
					<dim>7</dim>
				</port>
			</input>
			<output>
				<port id="2" precision="FP32">
					<dim>-1</dim>
					<dim>64</dim>
					<dim>128</dim>
					<dim>128</dim>
				</port>
			</output>
		</layer>
		<layer id="4" name="Reshape_47_compressed" type="Const" version="opset1">
			<data element_type="f16" shape="1, 64, 1, 1" offset="18816" size="128" />
			<output>
				<port id="0" precision="FP16">
					<dim>1</dim>
					<dim>64</dim>
					<dim>1</dim>
					<dim>1</dim>
				</port>
			</output>
		</layer>
		<layer id="5" name="Reshape_47" type="Convert" version="opset1">
			<data destination_type="f32" />
			<rt_info>
				<attribute name="decompression" version="0" />
			</rt_info>
			<input>
				<port id="0" precision="FP16">
					<dim>1</dim>
					<dim>64</dim>
					<dim>1</dim>
					<dim>1</dim>
				</port>
			</input>
			<output>
				<port id="1" precision="FP32">
					<dim>1</dim>
					<dim>64</dim>
					<dim>1</dim>
					<dim>1</dim>
				</port>
			</output>
		</layer>
		<layer id="6" name="/feature_extractor/feature_extractor/conv1/Conv" type="Add" version="opset1">
			<data auto_broadcast="numpy" />
			<input>
				<port id="0" precision="FP32">
					<dim>-1</dim>
					<dim>64</dim>
					<dim>128</dim>
					<dim>128</dim>
				</port>
				<port id="1" precision="FP32">
					<dim>1</dim>
					<dim>64</dim>
					<dim>1</dim>
					<dim>1</dim>
				</port>
			</input>
			<output>
				<port id="2" precision="FP32" names="/feature_extractor/feature_extractor/conv1/Conv_output_0">
					<dim>-1</dim>
					<dim>64</dim>
					<dim>128</dim>
					<dim>128</dim>
				</port>
			</output>
		</layer>
		<layer id="7" name="/feature_extractor/feature_extractor/act1/Relu" type="ReLU" version="opset1">
			<input>
				<port id="0" precision="FP32">
					<dim>-1</dim>
					<dim>64</dim>
					<dim>128</dim>
					<dim>128</dim>
				</port>
			</input>
			<output>
				<port id="1" precision="FP32" names="/feature_extractor/feature_extractor/act1/Relu_output_0">
					<dim>-1</dim>
					<dim>64</dim>
					<dim>128</dim>
					<dim>128</dim>
				</port>
			</output>
		</layer>
		<layer id="8" name="/feature_extractor/feature_extractor/maxpool/MaxPool" type="MaxPool" version="opset8">
			<data strides="2, 2" dilations="1, 1" pads_begin="1, 1" pads_end="1, 1" kernel="3, 3" rounding_type="floor" auto_pad="explicit" index_element_type="i64" axis="0" />
			<input>
				<port id="0" precision="FP32">
					<dim>-1</dim>
					<dim>64</dim>
					<dim>128</dim>
					<dim>128</dim>
				</port>
			</input>
			<output>
				<port id="1" precision="FP32" names="/feature_extractor/feature_extractor/maxpool/MaxPool_output_0">
					<dim>-1</dim>
					<dim>64</dim>
					<dim>64</dim>
					<dim>64</dim>
				</port>
				<port id="2" precision="I64">
					<dim>-1</dim>
					<dim>64</dim>
					<dim>64</dim>
					<dim>64</dim>
				</port>
			</output>
		</layer>
		<layer id="9" name="onnx::Conv_283_compressed" type="Const" version="opset1">
			<data element_type="f16" shape="64, 64, 3, 3" offset="18944" size="73728" />
			<output>
				<port id="0" precision="FP16">
					<dim>64</dim>
					<dim>64</dim>
					<dim>3</dim>
					<dim>3</dim>
				</port>
			</output>
		</layer>
		<layer id="10" name="onnx::Conv_283" type="Convert" version="opset1">
			<data destination_type="f32" />
			<rt_info>
				<attribute name="decompression" version="0" />
			</rt_info>
			<input>
				<port id="0" precision="FP16">
					<dim>64</dim>
					<dim>64</dim>
					<dim>3</dim>
					<dim>3</dim>
				</port>
			</input>
			<output>
				<port id="1" precision="FP32" names="onnx::Conv_283">
					<dim>64</dim>
					<dim>64</dim>
					<dim>3</dim>
					<dim>3</dim>
				</port>
			</output>
		</layer>
		<layer id="11" name="/feature_extractor/feature_extractor/layer1/layer1.0/conv1/Conv/WithoutBiases" type="Convolution" version="opset1">
			<data strides="1, 1" dilations="1, 1" pads_begin="1, 1" pads_end="1, 1" auto_pad="explicit" />
			<input>
				<port id="0" precision="FP32">
					<dim>-1</dim>
					<dim>64</dim>
					<dim>64</dim>
					<dim>64</dim>
				</port>
				<port id="1" precision="FP32">
					<dim>64</dim>
					<dim>64</dim>
					<dim>3</dim>
					<dim>3</dim>
				</port>
			</input>
			<output>
				<port id="2" precision="FP32">
					<dim>-1</dim>
					<dim>64</dim>
					<dim>64</dim>
					<dim>64</dim>
				</port>
			</output>
		</layer>
		<layer id="12" name="Reshape_64_compressed" type="Const" version="opset1">
			<data element_type="f16" shape="1, 64, 1, 1" offset="92672" size="128" />
			<output>
				<port id="0" precision="FP16">
					<dim>1</dim>
					<dim>64</dim>
					<dim>1</dim>
					<dim>1</dim>
				</port>
			</output>
		</layer>
		<layer id="13" name="Reshape_64" type="Convert" version="opset1">
			<data destination_type="f32" />
			<rt_info>
				<attribute name="decompression" version="0" />
			</rt_info>
			<input>
				<port id="0" precision="FP16">
					<dim>1</dim>
					<dim>64</dim>
					<dim>1</dim>
					<dim>1</dim>
				</port>
			</input>
			<output>
				<port id="1" precision="FP32">
					<dim>1</dim>
					<dim>64</dim>
					<dim>1</dim>
					<dim>1</dim>
				</port>
			</output>
		</layer>
		<layer id="14" name="/feature_extractor/feature_extractor/layer1/layer1.0/conv1/Conv" type="Add" version="opset1">
			<data auto_broadcast="numpy" />
			<input>
				<port id="0" precision="FP32">
					<dim>-1</dim>
					<dim>64</dim>
					<dim>64</dim>
					<dim>64</dim>
				</port>
				<port id="1" precision="FP32">
					<dim>1</dim>
					<dim>64</dim>
					<dim>1</dim>
					<dim>1</dim>
				</port>
			</input>
			<output>
				<port id="2" precision="FP32" names="/feature_extractor/feature_extractor/layer1/layer1.0/conv1/Conv_output_0">
					<dim>-1</dim>
					<dim>64</dim>
					<dim>64</dim>
					<dim>64</dim>
				</port>
			</output>
		</layer>
		<layer id="15" name="/feature_extractor/feature_extractor/layer1/layer1.0/act1/Relu" type="ReLU" version="opset1">
			<input>
				<port id="0" precision="FP32">
					<dim>-1</dim>
					<dim>64</dim>
					<dim>64</dim>
					<dim>64</dim>
				</port>
			</input>
			<output>
				<port id="1" precision="FP32" names="/feature_extractor/feature_extractor/layer1/layer1.0/act1/Relu_output_0">
					<dim>-1</dim>
					<dim>64</dim>
					<dim>64</dim>
					<dim>64</dim>
				</port>
			</output>
		</layer>
		<layer id="16" name="onnx::Conv_286_compressed" type="Const" version="opset1">
			<data element_type="f16" shape="64, 64, 3, 3" offset="92800" size="73728" />
			<output>
				<port id="0" precision="FP16">
					<dim>64</dim>
					<dim>64</dim>
					<dim>3</dim>
					<dim>3</dim>
				</port>
			</output>
		</layer>
		<layer id="17" name="onnx::Conv_286" type="Convert" version="opset1">
			<data destination_type="f32" />
			<rt_info>
				<attribute name="decompression" version="0" />
			</rt_info>
			<input>
				<port id="0" precision="FP16">
					<dim>64</dim>
					<dim>64</dim>
					<dim>3</dim>
					<dim>3</dim>
				</port>
			</input>
			<output>
				<port id="1" precision="FP32" names="onnx::Conv_286">
					<dim>64</dim>
					<dim>64</dim>
					<dim>3</dim>
					<dim>3</dim>
				</port>
			</output>
		</layer>
		<layer id="18" name="/feature_extractor/feature_extractor/layer1/layer1.0/conv2/Conv/WithoutBiases" type="Convolution" version="opset1">
			<data strides="1, 1" dilations="1, 1" pads_begin="1, 1" pads_end="1, 1" auto_pad="explicit" />
			<input>
				<port id="0" precision="FP32">
					<dim>-1</dim>
					<dim>64</dim>
					<dim>64</dim>
					<dim>64</dim>
				</port>
				<port id="1" precision="FP32">
					<dim>64</dim>
					<dim>64</dim>
					<dim>3</dim>
					<dim>3</dim>
				</port>
			</input>
			<output>
				<port id="2" precision="FP32">
					<dim>-1</dim>
					<dim>64</dim>
					<dim>64</dim>
					<dim>64</dim>
				</port>
			</output>
		</layer>
		<layer id="19" name="Reshape_80_compressed" type="Const" version="opset1">
			<data element_type="f16" shape="1, 64, 1, 1" offset="166528" size="128" />
			<output>
				<port id="0" precision="FP16">
					<dim>1</dim>
					<dim>64</dim>
					<dim>1</dim>
					<dim>1</dim>
				</port>
			</output>
		</layer>
		<layer id="20" name="Reshape_80" type="Convert" version="opset1">
			<data destination_type="f32" />
			<rt_info>
				<attribute name="decompression" version="0" />
			</rt_info>
			<input>
				<port id="0" precision="FP16">
					<dim>1</dim>
					<dim>64</dim>
					<dim>1</dim>
					<dim>1</dim>
				</port>
			</input>
			<output>
				<port id="1" precision="FP32">
					<dim>1</dim>
					<dim>64</dim>
					<dim>1</dim>
					<dim>1</dim>
				</port>
			</output>
		</layer>
		<layer id="21" name="/feature_extractor/feature_extractor/layer1/layer1.0/conv2/Conv" type="Add" version="opset1">
			<data auto_broadcast="numpy" />
			<input>
				<port id="0" precision="FP32">
					<dim>-1</dim>
					<dim>64</dim>
					<dim>64</dim>
					<dim>64</dim>
				</port>
				<port id="1" precision="FP32">
					<dim>1</dim>
					<dim>64</dim>
					<dim>1</dim>
					<dim>1</dim>
				</port>
			</input>
			<output>
				<port id="2" precision="FP32" names="/feature_extractor/feature_extractor/layer1/layer1.0/conv2/Conv_output_0">
					<dim>-1</dim>
					<dim>64</dim>
					<dim>64</dim>
					<dim>64</dim>
				</port>
			</output>
		</layer>
		<layer id="22" name="/feature_extractor/feature_extractor/layer1/layer1.0/Add" type="Add" version="opset1">
			<data auto_broadcast="numpy" />
			<input>
				<port id="0" precision="FP32">
					<dim>-1</dim>
					<dim>64</dim>
					<dim>64</dim>
					<dim>64</dim>
				</port>
				<port id="1" precision="FP32">
					<dim>-1</dim>
					<dim>64</dim>
					<dim>64</dim>
					<dim>64</dim>
				</port>
			</input>
			<output>
				<port id="2" precision="FP32" names="/feature_extractor/feature_extractor/layer1/layer1.0/Add_output_0">
					<dim>-1</dim>
					<dim>64</dim>
					<dim>64</dim>
					<dim>64</dim>
				</port>
			</output>
		</layer>
		<layer id="23" name="/feature_extractor/feature_extractor/layer1/layer1.0/act2/Relu" type="ReLU" version="opset1">
			<input>
				<port id="0" precision="FP32">
					<dim>-1</dim>
					<dim>64</dim>
					<dim>64</dim>
					<dim>64</dim>
				</port>
			</input>
			<output>
				<port id="1" precision="FP32" names="/feature_extractor/feature_extractor/layer1/layer1.0/act2/Relu_output_0">
					<dim>-1</dim>
					<dim>64</dim>
					<dim>64</dim>
					<dim>64</dim>
				</port>
			</output>
		</layer>
		<layer id="24" name="onnx::Conv_289_compressed" type="Const" version="opset1">
			<data element_type="f16" shape="64, 64, 3, 3" offset="166656" size="73728" />
			<output>
				<port id="0" precision="FP16">
					<dim>64</dim>
					<dim>64</dim>
					<dim>3</dim>
					<dim>3</dim>
				</port>
			</output>
		</layer>
		<layer id="25" name="onnx::Conv_289" type="Convert" version="opset1">
			<data destination_type="f32" />
			<rt_info>
				<attribute name="decompression" version="0" />
			</rt_info>
			<input>
				<port id="0" precision="FP16">
					<dim>64</dim>
					<dim>64</dim>
					<dim>3</dim>
					<dim>3</dim>
				</port>
			</input>
			<output>
				<port id="1" precision="FP32" names="onnx::Conv_289">
					<dim>64</dim>
					<dim>64</dim>
					<dim>3</dim>
					<dim>3</dim>
				</port>
			</output>
		</layer>
		<layer id="26" name="/feature_extractor/feature_extractor/layer1/layer1.1/conv1/Conv/WithoutBiases" type="Convolution" version="opset1">
			<data strides="1, 1" dilations="1, 1" pads_begin="1, 1" pads_end="1, 1" auto_pad="explicit" />
			<input>
				<port id="0" precision="FP32">
					<dim>-1</dim>
					<dim>64</dim>
					<dim>64</dim>
					<dim>64</dim>
				</port>
				<port id="1" precision="FP32">
					<dim>64</dim>
					<dim>64</dim>
					<dim>3</dim>
					<dim>3</dim>
				</port>
			</input>
			<output>
				<port id="2" precision="FP32">
					<dim>-1</dim>
					<dim>64</dim>
					<dim>64</dim>
					<dim>64</dim>
				</port>
			</output>
		</layer>
		<layer id="27" name="Reshape_97_compressed" type="Const" version="opset1">
			<data element_type="f16" shape="1, 64, 1, 1" offset="240384" size="128" />
			<output>
				<port id="0" precision="FP16">
					<dim>1</dim>
					<dim>64</dim>
					<dim>1</dim>
					<dim>1</dim>
				</port>
			</output>
		</layer>
		<layer id="28" name="Reshape_97" type="Convert" version="opset1">
			<data destination_type="f32" />
			<rt_info>
				<attribute name="decompression" version="0" />
			</rt_info>
			<input>
				<port id="0" precision="FP16">
					<dim>1</dim>
					<dim>64</dim>
					<dim>1</dim>
					<dim>1</dim>
				</port>
			</input>
			<output>
				<port id="1" precision="FP32">
					<dim>1</dim>
					<dim>64</dim>
					<dim>1</dim>
					<dim>1</dim>
				</port>
			</output>
		</layer>
		<layer id="29" name="/feature_extractor/feature_extractor/layer1/layer1.1/conv1/Conv" type="Add" version="opset1">
			<data auto_broadcast="numpy" />
			<input>
				<port id="0" precision="FP32">
					<dim>-1</dim>
					<dim>64</dim>
					<dim>64</dim>
					<dim>64</dim>
				</port>
				<port id="1" precision="FP32">
					<dim>1</dim>
					<dim>64</dim>
					<dim>1</dim>
					<dim>1</dim>
				</port>
			</input>
			<output>
				<port id="2" precision="FP32" names="/feature_extractor/feature_extractor/layer1/layer1.1/conv1/Conv_output_0">
					<dim>-1</dim>
					<dim>64</dim>
					<dim>64</dim>
					<dim>64</dim>
				</port>
			</output>
		</layer>
		<layer id="30" name="/feature_extractor/feature_extractor/layer1/layer1.1/act1/Relu" type="ReLU" version="opset1">
			<input>
				<port id="0" precision="FP32">
					<dim>-1</dim>
					<dim>64</dim>
					<dim>64</dim>
					<dim>64</dim>
				</port>
			</input>
			<output>
				<port id="1" precision="FP32" names="/feature_extractor/feature_extractor/layer1/layer1.1/act1/Relu_output_0">
					<dim>-1</dim>
					<dim>64</dim>
					<dim>64</dim>
					<dim>64</dim>
				</port>
			</output>
		</layer>
		<layer id="31" name="onnx::Conv_292_compressed" type="Const" version="opset1">
			<data element_type="f16" shape="64, 64, 3, 3" offset="240512" size="73728" />
			<output>
				<port id="0" precision="FP16">
					<dim>64</dim>
					<dim>64</dim>
					<dim>3</dim>
					<dim>3</dim>
				</port>
			</output>
		</layer>
		<layer id="32" name="onnx::Conv_292" type="Convert" version="opset1">
			<data destination_type="f32" />
			<rt_info>
				<attribute name="decompression" version="0" />
			</rt_info>
			<input>
				<port id="0" precision="FP16">
					<dim>64</dim>
					<dim>64</dim>
					<dim>3</dim>
					<dim>3</dim>
				</port>
			</input>
			<output>
				<port id="1" precision="FP32" names="onnx::Conv_292">
					<dim>64</dim>
					<dim>64</dim>
					<dim>3</dim>
					<dim>3</dim>
				</port>
			</output>
		</layer>
		<layer id="33" name="/feature_extractor/feature_extractor/layer1/layer1.1/conv2/Conv/WithoutBiases" type="Convolution" version="opset1">
			<data strides="1, 1" dilations="1, 1" pads_begin="1, 1" pads_end="1, 1" auto_pad="explicit" />
			<input>
				<port id="0" precision="FP32">
					<dim>-1</dim>
					<dim>64</dim>
					<dim>64</dim>
					<dim>64</dim>
				</port>
				<port id="1" precision="FP32">
					<dim>64</dim>
					<dim>64</dim>
					<dim>3</dim>
					<dim>3</dim>
				</port>
			</input>
			<output>
				<port id="2" precision="FP32">
					<dim>-1</dim>
					<dim>64</dim>
					<dim>64</dim>
					<dim>64</dim>
				</port>
			</output>
		</layer>
		<layer id="34" name="Reshape_113_compressed" type="Const" version="opset1">
			<data element_type="f16" shape="1, 64, 1, 1" offset="314240" size="128" />
			<output>
				<port id="0" precision="FP16">
					<dim>1</dim>
					<dim>64</dim>
					<dim>1</dim>
					<dim>1</dim>
				</port>
			</output>
		</layer>
		<layer id="35" name="Reshape_113" type="Convert" version="opset1">
			<data destination_type="f32" />
			<rt_info>
				<attribute name="decompression" version="0" />
			</rt_info>
			<input>
				<port id="0" precision="FP16">
					<dim>1</dim>
					<dim>64</dim>
					<dim>1</dim>
					<dim>1</dim>
				</port>
			</input>
			<output>
				<port id="1" precision="FP32">
					<dim>1</dim>
					<dim>64</dim>
					<dim>1</dim>
					<dim>1</dim>
				</port>
			</output>
		</layer>
		<layer id="36" name="/feature_extractor/feature_extractor/layer1/layer1.1/conv2/Conv" type="Add" version="opset1">
			<data auto_broadcast="numpy" />
			<input>
				<port id="0" precision="FP32">
					<dim>-1</dim>
					<dim>64</dim>
					<dim>64</dim>
					<dim>64</dim>
				</port>
				<port id="1" precision="FP32">
					<dim>1</dim>
					<dim>64</dim>
					<dim>1</dim>
					<dim>1</dim>
				</port>
			</input>
			<output>
				<port id="2" precision="FP32" names="/feature_extractor/feature_extractor/layer1/layer1.1/conv2/Conv_output_0">
					<dim>-1</dim>
					<dim>64</dim>
					<dim>64</dim>
					<dim>64</dim>
				</port>
			</output>
		</layer>
		<layer id="37" name="/feature_extractor/feature_extractor/layer1/layer1.1/Add" type="Add" version="opset1">
			<data auto_broadcast="numpy" />
			<input>
				<port id="0" precision="FP32">
					<dim>-1</dim>
					<dim>64</dim>
					<dim>64</dim>
					<dim>64</dim>
				</port>
				<port id="1" precision="FP32">
					<dim>-1</dim>
					<dim>64</dim>
					<dim>64</dim>
					<dim>64</dim>
				</port>
			</input>
			<output>
				<port id="2" precision="FP32" names="/feature_extractor/feature_extractor/layer1/layer1.1/Add_output_0">
					<dim>-1</dim>
					<dim>64</dim>
					<dim>64</dim>
					<dim>64</dim>
				</port>
			</output>
		</layer>
		<layer id="38" name="/feature_extractor/feature_extractor/layer1/layer1.1/act2/Relu" type="ReLU" version="opset1">
			<input>
				<port id="0" precision="FP32">
					<dim>-1</dim>
					<dim>64</dim>
					<dim>64</dim>
					<dim>64</dim>
				</port>
			</input>
			<output>
				<port id="1" precision="FP32" names="/feature_extractor/feature_extractor/layer1/layer1.1/act2/Relu_output_0">
					<dim>-1</dim>
					<dim>64</dim>
					<dim>64</dim>
					<dim>64</dim>
				</port>
			</output>
		</layer>
		<layer id="39" name="onnx::Conv_295_compressed" type="Const" version="opset1">
			<data element_type="f16" shape="128, 64, 3, 3" offset="314368" size="147456" />
			<output>
				<port id="0" precision="FP16">
					<dim>128</dim>
					<dim>64</dim>
					<dim>3</dim>
					<dim>3</dim>
				</port>
			</output>
		</layer>
		<layer id="40" name="onnx::Conv_295" type="Convert" version="opset1">
			<data destination_type="f32" />
			<rt_info>
				<attribute name="decompression" version="0" />
			</rt_info>
			<input>
				<port id="0" precision="FP16">
					<dim>128</dim>
					<dim>64</dim>
					<dim>3</dim>
					<dim>3</dim>
				</port>
			</input>
			<output>
				<port id="1" precision="FP32" names="onnx::Conv_295">
					<dim>128</dim>
					<dim>64</dim>
					<dim>3</dim>
					<dim>3</dim>
				</port>
			</output>
		</layer>
		<layer id="41" name="/feature_extractor/feature_extractor/layer2/layer2.0/conv1/Conv/WithoutBiases" type="Convolution" version="opset1">
			<data strides="2, 2" dilations="1, 1" pads_begin="1, 1" pads_end="1, 1" auto_pad="explicit" />
			<input>
				<port id="0" precision="FP32">
					<dim>-1</dim>
					<dim>64</dim>
					<dim>64</dim>
					<dim>64</dim>
				</port>
				<port id="1" precision="FP32">
					<dim>128</dim>
					<dim>64</dim>
					<dim>3</dim>
					<dim>3</dim>
				</port>
			</input>
			<output>
				<port id="2" precision="FP32">
					<dim>-1</dim>
					<dim>128</dim>
					<dim>32</dim>
					<dim>32</dim>
				</port>
			</output>
		</layer>
		<layer id="42" name="Reshape_130_compressed" type="Const" version="opset1">
			<data element_type="f16" shape="1, 128, 1, 1" offset="461824" size="256" />
			<output>
				<port id="0" precision="FP16">
					<dim>1</dim>
					<dim>128</dim>
					<dim>1</dim>
					<dim>1</dim>
				</port>
			</output>
		</layer>
		<layer id="43" name="Reshape_130" type="Convert" version="opset1">
			<data destination_type="f32" />
			<rt_info>
				<attribute name="decompression" version="0" />
			</rt_info>
			<input>
				<port id="0" precision="FP16">
					<dim>1</dim>
					<dim>128</dim>
					<dim>1</dim>
					<dim>1</dim>
				</port>
			</input>
			<output>
				<port id="1" precision="FP32">
					<dim>1</dim>
					<dim>128</dim>
					<dim>1</dim>
					<dim>1</dim>
				</port>
			</output>
		</layer>
		<layer id="44" name="/feature_extractor/feature_extractor/layer2/layer2.0/conv1/Conv" type="Add" version="opset1">
			<data auto_broadcast="numpy" />
			<input>
				<port id="0" precision="FP32">
					<dim>-1</dim>
					<dim>128</dim>
					<dim>32</dim>
					<dim>32</dim>
				</port>
				<port id="1" precision="FP32">
					<dim>1</dim>
					<dim>128</dim>
					<dim>1</dim>
					<dim>1</dim>
				</port>
			</input>
			<output>
				<port id="2" precision="FP32" names="/feature_extractor/feature_extractor/layer2/layer2.0/conv1/Conv_output_0">
					<dim>-1</dim>
					<dim>128</dim>
					<dim>32</dim>
					<dim>32</dim>
				</port>
			</output>
		</layer>
		<layer id="45" name="/feature_extractor/feature_extractor/layer2/layer2.0/act1/Relu" type="ReLU" version="opset1">
			<input>
				<port id="0" precision="FP32">
					<dim>-1</dim>
					<dim>128</dim>
					<dim>32</dim>
					<dim>32</dim>
				</port>
			</input>
			<output>
				<port id="1" precision="FP32" names="/feature_extractor/feature_extractor/layer2/layer2.0/act1/Relu_output_0">
					<dim>-1</dim>
					<dim>128</dim>
					<dim>32</dim>
					<dim>32</dim>
				</port>
			</output>
		</layer>
		<layer id="46" name="onnx::Conv_298_compressed" type="Const" version="opset1">
			<data element_type="f16" shape="128, 128, 3, 3" offset="462080" size="294912" />
			<output>
				<port id="0" precision="FP16">
					<dim>128</dim>
					<dim>128</dim>
					<dim>3</dim>
					<dim>3</dim>
				</port>
			</output>
		</layer>
		<layer id="47" name="onnx::Conv_298" type="Convert" version="opset1">
			<data destination_type="f32" />
			<rt_info>
				<attribute name="decompression" version="0" />
			</rt_info>
			<input>
				<port id="0" precision="FP16">
					<dim>128</dim>
					<dim>128</dim>
					<dim>3</dim>
					<dim>3</dim>
				</port>
			</input>
			<output>
				<port id="1" precision="FP32" names="onnx::Conv_298">
					<dim>128</dim>
					<dim>128</dim>
					<dim>3</dim>
					<dim>3</dim>
				</port>
			</output>
		</layer>
		<layer id="48" name="/feature_extractor/feature_extractor/layer2/layer2.0/conv2/Conv/WithoutBiases" type="Convolution" version="opset1">
			<data strides="1, 1" dilations="1, 1" pads_begin="1, 1" pads_end="1, 1" auto_pad="explicit" />
			<input>
				<port id="0" precision="FP32">
					<dim>-1</dim>
					<dim>128</dim>
					<dim>32</dim>
					<dim>32</dim>
				</port>
				<port id="1" precision="FP32">
					<dim>128</dim>
					<dim>128</dim>
					<dim>3</dim>
					<dim>3</dim>
				</port>
			</input>
			<output>
				<port id="2" precision="FP32">
					<dim>-1</dim>
					<dim>128</dim>
					<dim>32</dim>
					<dim>32</dim>
				</port>
			</output>
		</layer>
		<layer id="49" name="Reshape_146_compressed" type="Const" version="opset1">
			<data element_type="f16" shape="1, 128, 1, 1" offset="756992" size="256" />
			<output>
				<port id="0" precision="FP16">
					<dim>1</dim>
					<dim>128</dim>
					<dim>1</dim>
					<dim>1</dim>
				</port>
			</output>
		</layer>
		<layer id="50" name="Reshape_146" type="Convert" version="opset1">
			<data destination_type="f32" />
			<rt_info>
				<attribute name="decompression" version="0" />
			</rt_info>
			<input>
				<port id="0" precision="FP16">
					<dim>1</dim>
					<dim>128</dim>
					<dim>1</dim>
					<dim>1</dim>
				</port>
			</input>
			<output>
				<port id="1" precision="FP32">
					<dim>1</dim>
					<dim>128</dim>
					<dim>1</dim>
					<dim>1</dim>
				</port>
			</output>
		</layer>
		<layer id="51" name="/feature_extractor/feature_extractor/layer2/layer2.0/conv2/Conv" type="Add" version="opset1">
			<data auto_broadcast="numpy" />
			<input>
				<port id="0" precision="FP32">
					<dim>-1</dim>
					<dim>128</dim>
					<dim>32</dim>
					<dim>32</dim>
				</port>
				<port id="1" precision="FP32">
					<dim>1</dim>
					<dim>128</dim>
					<dim>1</dim>
					<dim>1</dim>
				</port>
			</input>
			<output>
				<port id="2" precision="FP32" names="/feature_extractor/feature_extractor/layer2/layer2.0/conv2/Conv_output_0">
					<dim>-1</dim>
					<dim>128</dim>
					<dim>32</dim>
					<dim>32</dim>
				</port>
			</output>
		</layer>
		<layer id="52" name="onnx::Conv_301_compressed" type="Const" version="opset1">
			<data element_type="f16" shape="128, 64, 1, 1" offset="757248" size="16384" />
			<output>
				<port id="0" precision="FP16">
					<dim>128</dim>
					<dim>64</dim>
					<dim>1</dim>
					<dim>1</dim>
				</port>
			</output>
		</layer>
		<layer id="53" name="onnx::Conv_301" type="Convert" version="opset1">
			<data destination_type="f32" />
			<rt_info>
				<attribute name="decompression" version="0" />
			</rt_info>
			<input>
				<port id="0" precision="FP16">
					<dim>128</dim>
					<dim>64</dim>
					<dim>1</dim>
					<dim>1</dim>
				</port>
			</input>
			<output>
				<port id="1" precision="FP32" names="onnx::Conv_301">
					<dim>128</dim>
					<dim>64</dim>
					<dim>1</dim>
					<dim>1</dim>
				</port>
			</output>
		</layer>
		<layer id="54" name="/feature_extractor/feature_extractor/layer2/layer2.0/downsample/downsample.0/Conv/WithoutBiases" type="Convolution" version="opset1">
			<data strides="2, 2" dilations="1, 1" pads_begin="0, 0" pads_end="0, 0" auto_pad="explicit" />
			<input>
				<port id="0" precision="FP32">
					<dim>-1</dim>
					<dim>64</dim>
					<dim>64</dim>
					<dim>64</dim>
				</port>
				<port id="1" precision="FP32">
					<dim>128</dim>
					<dim>64</dim>
					<dim>1</dim>
					<dim>1</dim>
				</port>
			</input>
			<output>
				<port id="2" precision="FP32">
					<dim>-1</dim>
					<dim>128</dim>
					<dim>32</dim>
					<dim>32</dim>
				</port>
			</output>
		</layer>
		<layer id="55" name="Reshape_161_compressed" type="Const" version="opset1">
			<data element_type="f16" shape="1, 128, 1, 1" offset="773632" size="256" />
			<output>
				<port id="0" precision="FP16">
					<dim>1</dim>
					<dim>128</dim>
					<dim>1</dim>
					<dim>1</dim>
				</port>
			</output>
		</layer>
		<layer id="56" name="Reshape_161" type="Convert" version="opset1">
			<data destination_type="f32" />
			<rt_info>
				<attribute name="decompression" version="0" />
			</rt_info>
			<input>
				<port id="0" precision="FP16">
					<dim>1</dim>
					<dim>128</dim>
					<dim>1</dim>
					<dim>1</dim>
				</port>
			</input>
			<output>
				<port id="1" precision="FP32">
					<dim>1</dim>
					<dim>128</dim>
					<dim>1</dim>
					<dim>1</dim>
				</port>
			</output>
		</layer>
		<layer id="57" name="/feature_extractor/feature_extractor/layer2/layer2.0/downsample/downsample.0/Conv" type="Add" version="opset1">
			<data auto_broadcast="numpy" />
			<input>
				<port id="0" precision="FP32">
					<dim>-1</dim>
					<dim>128</dim>
					<dim>32</dim>
					<dim>32</dim>
				</port>
				<port id="1" precision="FP32">
					<dim>1</dim>
					<dim>128</dim>
					<dim>1</dim>
					<dim>1</dim>
				</port>
			</input>
			<output>
				<port id="2" precision="FP32" names="/feature_extractor/feature_extractor/layer2/layer2.0/downsample/downsample.0/Conv_output_0">
					<dim>-1</dim>
					<dim>128</dim>
					<dim>32</dim>
					<dim>32</dim>
				</port>
			</output>
		</layer>
		<layer id="58" name="/feature_extractor/feature_extractor/layer2/layer2.0/Add" type="Add" version="opset1">
			<data auto_broadcast="numpy" />
			<input>
				<port id="0" precision="FP32">
					<dim>-1</dim>
					<dim>128</dim>
					<dim>32</dim>
					<dim>32</dim>
				</port>
				<port id="1" precision="FP32">
					<dim>-1</dim>
					<dim>128</dim>
					<dim>32</dim>
					<dim>32</dim>
				</port>
			</input>
			<output>
				<port id="2" precision="FP32" names="/feature_extractor/feature_extractor/layer2/layer2.0/Add_output_0">
					<dim>-1</dim>
					<dim>128</dim>
					<dim>32</dim>
					<dim>32</dim>
				</port>
			</output>
		</layer>
		<layer id="59" name="/feature_extractor/feature_extractor/layer2/layer2.0/act2/Relu" type="ReLU" version="opset1">
			<input>
				<port id="0" precision="FP32">
					<dim>-1</dim>
					<dim>128</dim>
					<dim>32</dim>
					<dim>32</dim>
				</port>
			</input>
			<output>
				<port id="1" precision="FP32" names="/feature_extractor/feature_extractor/layer2/layer2.0/act2/Relu_output_0">
					<dim>-1</dim>
					<dim>128</dim>
					<dim>32</dim>
					<dim>32</dim>
				</port>
			</output>
		</layer>
		<layer id="60" name="onnx::Conv_304_compressed" type="Const" version="opset1">
			<data element_type="f16" shape="128, 128, 3, 3" offset="773888" size="294912" />
			<output>
				<port id="0" precision="FP16">
					<dim>128</dim>
					<dim>128</dim>
					<dim>3</dim>
					<dim>3</dim>
				</port>
			</output>
		</layer>
		<layer id="61" name="onnx::Conv_304" type="Convert" version="opset1">
			<data destination_type="f32" />
			<rt_info>
				<attribute name="decompression" version="0" />
			</rt_info>
			<input>
				<port id="0" precision="FP16">
					<dim>128</dim>
					<dim>128</dim>
					<dim>3</dim>
					<dim>3</dim>
				</port>
			</input>
			<output>
				<port id="1" precision="FP32" names="onnx::Conv_304">
					<dim>128</dim>
					<dim>128</dim>
					<dim>3</dim>
					<dim>3</dim>
				</port>
			</output>
		</layer>
		<layer id="62" name="/feature_extractor/feature_extractor/layer2/layer2.1/conv1/Conv/WithoutBiases" type="Convolution" version="opset1">
			<data strides="1, 1" dilations="1, 1" pads_begin="1, 1" pads_end="1, 1" auto_pad="explicit" />
			<input>
				<port id="0" precision="FP32">
					<dim>-1</dim>
					<dim>128</dim>
					<dim>32</dim>
					<dim>32</dim>
				</port>
				<port id="1" precision="FP32">
					<dim>128</dim>
					<dim>128</dim>
					<dim>3</dim>
					<dim>3</dim>
				</port>
			</input>
			<output>
				<port id="2" precision="FP32">
					<dim>-1</dim>
					<dim>128</dim>
					<dim>32</dim>
					<dim>32</dim>
				</port>
			</output>
		</layer>
		<layer id="63" name="Reshape_178_compressed" type="Const" version="opset1">
			<data element_type="f16" shape="1, 128, 1, 1" offset="1068800" size="256" />
			<output>
				<port id="0" precision="FP16">
					<dim>1</dim>
					<dim>128</dim>
					<dim>1</dim>
					<dim>1</dim>
				</port>
			</output>
		</layer>
		<layer id="64" name="Reshape_178" type="Convert" version="opset1">
			<data destination_type="f32" />
			<rt_info>
				<attribute name="decompression" version="0" />
			</rt_info>
			<input>
				<port id="0" precision="FP16">
					<dim>1</dim>
					<dim>128</dim>
					<dim>1</dim>
					<dim>1</dim>
				</port>
			</input>
			<output>
				<port id="1" precision="FP32">
					<dim>1</dim>
					<dim>128</dim>
					<dim>1</dim>
					<dim>1</dim>
				</port>
			</output>
		</layer>
		<layer id="65" name="/feature_extractor/feature_extractor/layer2/layer2.1/conv1/Conv" type="Add" version="opset1">
			<data auto_broadcast="numpy" />
			<input>
				<port id="0" precision="FP32">
					<dim>-1</dim>
					<dim>128</dim>
					<dim>32</dim>
					<dim>32</dim>
				</port>
				<port id="1" precision="FP32">
					<dim>1</dim>
					<dim>128</dim>
					<dim>1</dim>
					<dim>1</dim>
				</port>
			</input>
			<output>
				<port id="2" precision="FP32" names="/feature_extractor/feature_extractor/layer2/layer2.1/conv1/Conv_output_0">
					<dim>-1</dim>
					<dim>128</dim>
					<dim>32</dim>
					<dim>32</dim>
				</port>
			</output>
		</layer>
		<layer id="66" name="/feature_extractor/feature_extractor/layer2/layer2.1/act1/Relu" type="ReLU" version="opset1">
			<input>
				<port id="0" precision="FP32">
					<dim>-1</dim>
					<dim>128</dim>
					<dim>32</dim>
					<dim>32</dim>
				</port>
			</input>
			<output>
				<port id="1" precision="FP32" names="/feature_extractor/feature_extractor/layer2/layer2.1/act1/Relu_output_0">
					<dim>-1</dim>
					<dim>128</dim>
					<dim>32</dim>
					<dim>32</dim>
				</port>
			</output>
		</layer>
		<layer id="67" name="onnx::Conv_307_compressed" type="Const" version="opset1">
			<data element_type="f16" shape="128, 128, 3, 3" offset="1069056" size="294912" />
			<output>
				<port id="0" precision="FP16">
					<dim>128</dim>
					<dim>128</dim>
					<dim>3</dim>
					<dim>3</dim>
				</port>
			</output>
		</layer>
		<layer id="68" name="onnx::Conv_307" type="Convert" version="opset1">
			<data destination_type="f32" />
			<rt_info>
				<attribute name="decompression" version="0" />
			</rt_info>
			<input>
				<port id="0" precision="FP16">
					<dim>128</dim>
					<dim>128</dim>
					<dim>3</dim>
					<dim>3</dim>
				</port>
			</input>
			<output>
				<port id="1" precision="FP32" names="onnx::Conv_307">
					<dim>128</dim>
					<dim>128</dim>
					<dim>3</dim>
					<dim>3</dim>
				</port>
			</output>
		</layer>
		<layer id="69" name="/feature_extractor/feature_extractor/layer2/layer2.1/conv2/Conv/WithoutBiases" type="Convolution" version="opset1">
			<data strides="1, 1" dilations="1, 1" pads_begin="1, 1" pads_end="1, 1" auto_pad="explicit" />
			<input>
				<port id="0" precision="FP32">
					<dim>-1</dim>
					<dim>128</dim>
					<dim>32</dim>
					<dim>32</dim>
				</port>
				<port id="1" precision="FP32">
					<dim>128</dim>
					<dim>128</dim>
					<dim>3</dim>
					<dim>3</dim>
				</port>
			</input>
			<output>
				<port id="2" precision="FP32">
					<dim>-1</dim>
					<dim>128</dim>
					<dim>32</dim>
					<dim>32</dim>
				</port>
			</output>
		</layer>
		<layer id="70" name="Reshape_194_compressed" type="Const" version="opset1">
			<data element_type="f16" shape="1, 128, 1, 1" offset="1363968" size="256" />
			<output>
				<port id="0" precision="FP16">
					<dim>1</dim>
					<dim>128</dim>
					<dim>1</dim>
					<dim>1</dim>
				</port>
			</output>
		</layer>
		<layer id="71" name="Reshape_194" type="Convert" version="opset1">
			<data destination_type="f32" />
			<rt_info>
				<attribute name="decompression" version="0" />
			</rt_info>
			<input>
				<port id="0" precision="FP16">
					<dim>1</dim>
					<dim>128</dim>
					<dim>1</dim>
					<dim>1</dim>
				</port>
			</input>
			<output>
				<port id="1" precision="FP32">
					<dim>1</dim>
					<dim>128</dim>
					<dim>1</dim>
					<dim>1</dim>
				</port>
			</output>
		</layer>
		<layer id="72" name="/feature_extractor/feature_extractor/layer2/layer2.1/conv2/Conv" type="Add" version="opset1">
			<data auto_broadcast="numpy" />
			<input>
				<port id="0" precision="FP32">
					<dim>-1</dim>
					<dim>128</dim>
					<dim>32</dim>
					<dim>32</dim>
				</port>
				<port id="1" precision="FP32">
					<dim>1</dim>
					<dim>128</dim>
					<dim>1</dim>
					<dim>1</dim>
				</port>
			</input>
			<output>
				<port id="2" precision="FP32" names="/feature_extractor/feature_extractor/layer2/layer2.1/conv2/Conv_output_0">
					<dim>-1</dim>
					<dim>128</dim>
					<dim>32</dim>
					<dim>32</dim>
				</port>
			</output>
		</layer>
		<layer id="73" name="/feature_extractor/feature_extractor/layer2/layer2.1/Add" type="Add" version="opset1">
			<data auto_broadcast="numpy" />
			<input>
				<port id="0" precision="FP32">
					<dim>-1</dim>
					<dim>128</dim>
					<dim>32</dim>
					<dim>32</dim>
				</port>
				<port id="1" precision="FP32">
					<dim>-1</dim>
					<dim>128</dim>
					<dim>32</dim>
					<dim>32</dim>
				</port>
			</input>
			<output>
				<port id="2" precision="FP32" names="/feature_extractor/feature_extractor/layer2/layer2.1/Add_output_0">
					<dim>-1</dim>
					<dim>128</dim>
					<dim>32</dim>
					<dim>32</dim>
				</port>
			</output>
		</layer>
		<layer id="74" name="/feature_extractor/feature_extractor/layer2/layer2.1/act2/Relu" type="ReLU" version="opset1">
			<input>
				<port id="0" precision="FP32">
					<dim>-1</dim>
					<dim>128</dim>
					<dim>32</dim>
					<dim>32</dim>
				</port>
			</input>
			<output>
				<port id="1" precision="FP32" names="/feature_extractor/feature_extractor/layer2/layer2.1/act2/Relu_output_0">
					<dim>-1</dim>
					<dim>128</dim>
					<dim>32</dim>
					<dim>32</dim>
				</port>
			</output>
		</layer>
		<layer id="75" name="/Shape_2" type="ShapeOf" version="opset3">
			<data output_type="i64" />
			<input>
				<port id="0" precision="FP32">
					<dim>-1</dim>
					<dim>128</dim>
					<dim>32</dim>
					<dim>32</dim>
				</port>
			</input>
			<output>
				<port id="1" precision="I64" names="/Shape_2_output_0">
					<dim>4</dim>
				</port>
			</output>
		</layer>
		<layer id="76" name="/Constant_3" type="Const" version="opset1">
			<data element_type="i64" shape="1" offset="1364224" size="8" />
			<output>
				<port id="0" precision="I64" names="/Constant_3_output_0">
					<dim>1</dim>
				</port>
			</output>
		</layer>
		<layer id="77" name="/Constant_4" type="Const" version="opset1">
			<data element_type="i64" shape="1" offset="1364232" size="8" />
			<output>
				<port id="0" precision="I64" names="/Constant_4_output_0">
					<dim>1</dim>
				</port>
			</output>
		</layer>
		<layer id="78" name="Broadcast_300" type="Const" version="opset1">
			<data element_type="i64" shape="1" offset="1364240" size="8" />
			<output>
				<port id="0" precision="I64">
					<dim>1</dim>
				</port>
			</output>
		</layer>
		<layer id="79" name="/Slice" type="StridedSlice" version="opset1">
			<data begin_mask="0" end_mask="0" new_axis_mask="" shrink_axis_mask="" ellipsis_mask="" />
			<input>
				<port id="0" precision="I64">
					<dim>4</dim>
				</port>
				<port id="1" precision="I64">
					<dim>1</dim>
				</port>
				<port id="2" precision="I64">
					<dim>1</dim>
				</port>
				<port id="3" precision="I64">
					<dim>1</dim>
				</port>
			</input>
			<output>
				<port id="4" precision="I64" names="/Slice_output_0">
					<dim>2</dim>
				</port>
			</output>
		</layer>
		<layer id="80" name="/Shape" type="ShapeOf" version="opset3">
			<data output_type="i64" />
			<input>
				<port id="0" precision="FP32">
					<dim>-1</dim>
					<dim>64</dim>
					<dim>64</dim>
					<dim>64</dim>
				</port>
			</input>
			<output>
				<port id="1" precision="I64" names="/Shape_1_output_0,/Shape_output_0">
					<dim>4</dim>
				</port>
			</output>
		</layer>
		<layer id="81" name="Constant_2745" type="Const" version="opset1">
			<data element_type="i64" shape="2" offset="1364248" size="16" />
			<output>
				<port id="0" precision="I64">
					<dim>2</dim>
				</port>
			</output>
		</layer>
		<layer id="82" name="Constant_2746" type="Const" version="opset1">
			<data element_type="i64" shape="" offset="1364224" size="8" />
			<output>
				<port id="0" precision="I64" />
			</output>
		</layer>
		<layer id="83" name="Gather_2747" type="Gather" version="opset8">
			<data batch_dims="0" />
			<input>
				<port id="0" precision="I64">
					<dim>4</dim>
				</port>
				<port id="1" precision="I64">
					<dim>2</dim>
				</port>
				<port id="2" precision="I64" />
			</input>
			<output>
				<port id="3" precision="I64" names="/Cast_output_0,/Concat_output_0">
					<dim>2</dim>
				</port>
			</output>
		</layer>
		<layer id="84" name="/Concat_1" type="Concat" version="opset1">
			<data axis="0" />
			<input>
				<port id="0" precision="I64">
					<dim>2</dim>
				</port>
				<port id="1" precision="I64">
					<dim>2</dim>
				</port>
			</input>
			<output>
				<port id="2" precision="I64" names="/Concat_1_output_0">
					<dim>4</dim>
				</port>
			</output>
		</layer>
		<layer id="85" name="/Resize" type="Interpolate" version="opset11">
			<data mode="nearest" shape_calculation_mode="sizes" coordinate_transformation_mode="asymmetric" nearest_mode="floor" antialias="false" pads_begin="0, 0, 0, 0" pads_end="0, 0, 0, 0" cube_coeff="-0.75" />
			<input>
				<port id="0" precision="FP32">
					<dim>-1</dim>
					<dim>128</dim>
					<dim>32</dim>
					<dim>32</dim>
				</port>
				<port id="1" precision="I64">
					<dim>4</dim>
				</port>
			</input>
			<output>
				<port id="2" precision="FP32" names="/Resize_output_0">
					<dim>-1</dim>
					<dim>128</dim>
					<dim>64</dim>
					<dim>64</dim>
				</port>
			</output>
		</layer>
		<layer id="86" name="/Concat_2" type="Concat" version="opset1">
			<data axis="1" />
			<input>
				<port id="0" precision="FP32">
					<dim>-1</dim>
					<dim>64</dim>
					<dim>64</dim>
					<dim>64</dim>
				</port>
				<port id="1" precision="FP32">
					<dim>-1</dim>
					<dim>128</dim>
					<dim>64</dim>
					<dim>64</dim>
				</port>
			</input>
			<output>
				<port id="2" precision="FP32" names="/Concat_2_output_0">
					<dim>-1</dim>
					<dim>192</dim>
					<dim>64</dim>
					<dim>64</dim>
				</port>
			</output>
		</layer>
		<layer id="87" name="onnx::Conv_310_compressed" type="Const" version="opset1">
			<data element_type="f16" shape="256, 128, 3, 3" offset="1364264" size="589824" />
			<output>
				<port id="0" precision="FP16">
					<dim>256</dim>
					<dim>128</dim>
					<dim>3</dim>
					<dim>3</dim>
				</port>
			</output>
		</layer>
		<layer id="88" name="onnx::Conv_310" type="Convert" version="opset1">
			<data destination_type="f32" />
			<rt_info>
				<attribute name="decompression" version="0" />
			</rt_info>
			<input>
				<port id="0" precision="FP16">
					<dim>256</dim>
					<dim>128</dim>
					<dim>3</dim>
					<dim>3</dim>
				</port>
			</input>
			<output>
				<port id="1" precision="FP32" names="onnx::Conv_310">
					<dim>256</dim>
					<dim>128</dim>
					<dim>3</dim>
					<dim>3</dim>
				</port>
			</output>
		</layer>
		<layer id="89" name="/feature_extractor/feature_extractor/layer3/layer3.0/conv1/Conv/WithoutBiases" type="Convolution" version="opset1">
			<data strides="2, 2" dilations="1, 1" pads_begin="1, 1" pads_end="1, 1" auto_pad="explicit" />
			<input>
				<port id="0" precision="FP32">
					<dim>-1</dim>
					<dim>128</dim>
					<dim>32</dim>
					<dim>32</dim>
				</port>
				<port id="1" precision="FP32">
					<dim>256</dim>
					<dim>128</dim>
					<dim>3</dim>
					<dim>3</dim>
				</port>
			</input>
			<output>
				<port id="2" precision="FP32">
					<dim>-1</dim>
					<dim>256</dim>
					<dim>16</dim>
					<dim>16</dim>
				</port>
			</output>
		</layer>
		<layer id="90" name="Reshape_211_compressed" type="Const" version="opset1">
			<data element_type="f16" shape="1, 256, 1, 1" offset="1954088" size="512" />
			<output>
				<port id="0" precision="FP16">
					<dim>1</dim>
					<dim>256</dim>
					<dim>1</dim>
					<dim>1</dim>
				</port>
			</output>
		</layer>
		<layer id="91" name="Reshape_211" type="Convert" version="opset1">
			<data destination_type="f32" />
			<rt_info>
				<attribute name="decompression" version="0" />
			</rt_info>
			<input>
				<port id="0" precision="FP16">
					<dim>1</dim>
					<dim>256</dim>
					<dim>1</dim>
					<dim>1</dim>
				</port>
			</input>
			<output>
				<port id="1" precision="FP32">
					<dim>1</dim>
					<dim>256</dim>
					<dim>1</dim>
					<dim>1</dim>
				</port>
			</output>
		</layer>
		<layer id="92" name="/feature_extractor/feature_extractor/layer3/layer3.0/conv1/Conv" type="Add" version="opset1">
			<data auto_broadcast="numpy" />
			<input>
				<port id="0" precision="FP32">
					<dim>-1</dim>
					<dim>256</dim>
					<dim>16</dim>
					<dim>16</dim>
				</port>
				<port id="1" precision="FP32">
					<dim>1</dim>
					<dim>256</dim>
					<dim>1</dim>
					<dim>1</dim>
				</port>
			</input>
			<output>
				<port id="2" precision="FP32" names="/feature_extractor/feature_extractor/layer3/layer3.0/conv1/Conv_output_0">
					<dim>-1</dim>
					<dim>256</dim>
					<dim>16</dim>
					<dim>16</dim>
				</port>
			</output>
		</layer>
		<layer id="93" name="/feature_extractor/feature_extractor/layer3/layer3.0/act1/Relu" type="ReLU" version="opset1">
			<input>
				<port id="0" precision="FP32">
					<dim>-1</dim>
					<dim>256</dim>
					<dim>16</dim>
					<dim>16</dim>
				</port>
			</input>
			<output>
				<port id="1" precision="FP32" names="/feature_extractor/feature_extractor/layer3/layer3.0/act1/Relu_output_0">
					<dim>-1</dim>
					<dim>256</dim>
					<dim>16</dim>
					<dim>16</dim>
				</port>
			</output>
		</layer>
		<layer id="94" name="onnx::Conv_313_compressed" type="Const" version="opset1">
			<data element_type="f16" shape="256, 256, 3, 3" offset="1954600" size="1179648" />
			<output>
				<port id="0" precision="FP16">
					<dim>256</dim>
					<dim>256</dim>
					<dim>3</dim>
					<dim>3</dim>
				</port>
			</output>
		</layer>
		<layer id="95" name="onnx::Conv_313" type="Convert" version="opset1">
			<data destination_type="f32" />
			<rt_info>
				<attribute name="decompression" version="0" />
			</rt_info>
			<input>
				<port id="0" precision="FP16">
					<dim>256</dim>
					<dim>256</dim>
					<dim>3</dim>
					<dim>3</dim>
				</port>
			</input>
			<output>
				<port id="1" precision="FP32" names="onnx::Conv_313">
					<dim>256</dim>
					<dim>256</dim>
					<dim>3</dim>
					<dim>3</dim>
				</port>
			</output>
		</layer>
		<layer id="96" name="/feature_extractor/feature_extractor/layer3/layer3.0/conv2/Conv/WithoutBiases" type="Convolution" version="opset1">
			<data strides="1, 1" dilations="1, 1" pads_begin="1, 1" pads_end="1, 1" auto_pad="explicit" />
			<input>
				<port id="0" precision="FP32">
					<dim>-1</dim>
					<dim>256</dim>
					<dim>16</dim>
					<dim>16</dim>
				</port>
				<port id="1" precision="FP32">
					<dim>256</dim>
					<dim>256</dim>
					<dim>3</dim>
					<dim>3</dim>
				</port>
			</input>
			<output>
				<port id="2" precision="FP32">
					<dim>-1</dim>
					<dim>256</dim>
					<dim>16</dim>
					<dim>16</dim>
				</port>
			</output>
		</layer>
		<layer id="97" name="Reshape_227_compressed" type="Const" version="opset1">
			<data element_type="f16" shape="1, 256, 1, 1" offset="3134248" size="512" />
			<output>
				<port id="0" precision="FP16">
					<dim>1</dim>
					<dim>256</dim>
					<dim>1</dim>
					<dim>1</dim>
				</port>
			</output>
		</layer>
		<layer id="98" name="Reshape_227" type="Convert" version="opset1">
			<data destination_type="f32" />
			<rt_info>
				<attribute name="decompression" version="0" />
			</rt_info>
			<input>
				<port id="0" precision="FP16">
					<dim>1</dim>
					<dim>256</dim>
					<dim>1</dim>
					<dim>1</dim>
				</port>
			</input>
			<output>
				<port id="1" precision="FP32">
					<dim>1</dim>
					<dim>256</dim>
					<dim>1</dim>
					<dim>1</dim>
				</port>
			</output>
		</layer>
		<layer id="99" name="/feature_extractor/feature_extractor/layer3/layer3.0/conv2/Conv" type="Add" version="opset1">
			<data auto_broadcast="numpy" />
			<input>
				<port id="0" precision="FP32">
					<dim>-1</dim>
					<dim>256</dim>
					<dim>16</dim>
					<dim>16</dim>
				</port>
				<port id="1" precision="FP32">
					<dim>1</dim>
					<dim>256</dim>
					<dim>1</dim>
					<dim>1</dim>
				</port>
			</input>
			<output>
				<port id="2" precision="FP32" names="/feature_extractor/feature_extractor/layer3/layer3.0/conv2/Conv_output_0">
					<dim>-1</dim>
					<dim>256</dim>
					<dim>16</dim>
					<dim>16</dim>
				</port>
			</output>
		</layer>
		<layer id="100" name="onnx::Conv_316_compressed" type="Const" version="opset1">
			<data element_type="f16" shape="256, 128, 1, 1" offset="3134760" size="65536" />
			<output>
				<port id="0" precision="FP16">
					<dim>256</dim>
					<dim>128</dim>
					<dim>1</dim>
					<dim>1</dim>
				</port>
			</output>
		</layer>
		<layer id="101" name="onnx::Conv_316" type="Convert" version="opset1">
			<data destination_type="f32" />
			<rt_info>
				<attribute name="decompression" version="0" />
			</rt_info>
			<input>
				<port id="0" precision="FP16">
					<dim>256</dim>
					<dim>128</dim>
					<dim>1</dim>
					<dim>1</dim>
				</port>
			</input>
			<output>
				<port id="1" precision="FP32" names="onnx::Conv_316">
					<dim>256</dim>
					<dim>128</dim>
					<dim>1</dim>
					<dim>1</dim>
				</port>
			</output>
		</layer>
		<layer id="102" name="/feature_extractor/feature_extractor/layer3/layer3.0/downsample/downsample.0/Conv/WithoutBiases" type="Convolution" version="opset1">
			<data strides="2, 2" dilations="1, 1" pads_begin="0, 0" pads_end="0, 0" auto_pad="explicit" />
			<input>
				<port id="0" precision="FP32">
					<dim>-1</dim>
					<dim>128</dim>
					<dim>32</dim>
					<dim>32</dim>
				</port>
				<port id="1" precision="FP32">
					<dim>256</dim>
					<dim>128</dim>
					<dim>1</dim>
					<dim>1</dim>
				</port>
			</input>
			<output>
				<port id="2" precision="FP32">
					<dim>-1</dim>
					<dim>256</dim>
					<dim>16</dim>
					<dim>16</dim>
				</port>
			</output>
		</layer>
		<layer id="103" name="Reshape_242_compressed" type="Const" version="opset1">
			<data element_type="f16" shape="1, 256, 1, 1" offset="3200296" size="512" />
			<output>
				<port id="0" precision="FP16">
					<dim>1</dim>
					<dim>256</dim>
					<dim>1</dim>
					<dim>1</dim>
				</port>
			</output>
		</layer>
		<layer id="104" name="Reshape_242" type="Convert" version="opset1">
			<data destination_type="f32" />
			<rt_info>
				<attribute name="decompression" version="0" />
			</rt_info>
			<input>
				<port id="0" precision="FP16">
					<dim>1</dim>
					<dim>256</dim>
					<dim>1</dim>
					<dim>1</dim>
				</port>
			</input>
			<output>
				<port id="1" precision="FP32">
					<dim>1</dim>
					<dim>256</dim>
					<dim>1</dim>
					<dim>1</dim>
				</port>
			</output>
		</layer>
		<layer id="105" name="/feature_extractor/feature_extractor/layer3/layer3.0/downsample/downsample.0/Conv" type="Add" version="opset1">
			<data auto_broadcast="numpy" />
			<input>
				<port id="0" precision="FP32">
					<dim>-1</dim>
					<dim>256</dim>
					<dim>16</dim>
					<dim>16</dim>
				</port>
				<port id="1" precision="FP32">
					<dim>1</dim>
					<dim>256</dim>
					<dim>1</dim>
					<dim>1</dim>
				</port>
			</input>
			<output>
				<port id="2" precision="FP32" names="/feature_extractor/feature_extractor/layer3/layer3.0/downsample/downsample.0/Conv_output_0">
					<dim>-1</dim>
					<dim>256</dim>
					<dim>16</dim>
					<dim>16</dim>
				</port>
			</output>
		</layer>
		<layer id="106" name="/feature_extractor/feature_extractor/layer3/layer3.0/Add" type="Add" version="opset1">
			<data auto_broadcast="numpy" />
			<input>
				<port id="0" precision="FP32">
					<dim>-1</dim>
					<dim>256</dim>
					<dim>16</dim>
					<dim>16</dim>
				</port>
				<port id="1" precision="FP32">
					<dim>-1</dim>
					<dim>256</dim>
					<dim>16</dim>
					<dim>16</dim>
				</port>
			</input>
			<output>
				<port id="2" precision="FP32" names="/feature_extractor/feature_extractor/layer3/layer3.0/Add_output_0">
					<dim>-1</dim>
					<dim>256</dim>
					<dim>16</dim>
					<dim>16</dim>
				</port>
			</output>
		</layer>
		<layer id="107" name="/feature_extractor/feature_extractor/layer3/layer3.0/act2/Relu" type="ReLU" version="opset1">
			<input>
				<port id="0" precision="FP32">
					<dim>-1</dim>
					<dim>256</dim>
					<dim>16</dim>
					<dim>16</dim>
				</port>
			</input>
			<output>
				<port id="1" precision="FP32" names="/feature_extractor/feature_extractor/layer3/layer3.0/act2/Relu_output_0">
					<dim>-1</dim>
					<dim>256</dim>
					<dim>16</dim>
					<dim>16</dim>
				</port>
			</output>
		</layer>
		<layer id="108" name="onnx::Conv_319_compressed" type="Const" version="opset1">
			<data element_type="f16" shape="256, 256, 3, 3" offset="3200808" size="1179648" />
			<output>
				<port id="0" precision="FP16">
					<dim>256</dim>
					<dim>256</dim>
					<dim>3</dim>
					<dim>3</dim>
				</port>
			</output>
		</layer>
		<layer id="109" name="onnx::Conv_319" type="Convert" version="opset1">
			<data destination_type="f32" />
			<rt_info>
				<attribute name="decompression" version="0" />
			</rt_info>
			<input>
				<port id="0" precision="FP16">
					<dim>256</dim>
					<dim>256</dim>
					<dim>3</dim>
					<dim>3</dim>
				</port>
			</input>
			<output>
				<port id="1" precision="FP32" names="onnx::Conv_319">
					<dim>256</dim>
					<dim>256</dim>
					<dim>3</dim>
					<dim>3</dim>
				</port>
			</output>
		</layer>
		<layer id="110" name="/feature_extractor/feature_extractor/layer3/layer3.1/conv1/Conv/WithoutBiases" type="Convolution" version="opset1">
			<data strides="1, 1" dilations="1, 1" pads_begin="1, 1" pads_end="1, 1" auto_pad="explicit" />
			<input>
				<port id="0" precision="FP32">
					<dim>-1</dim>
					<dim>256</dim>
					<dim>16</dim>
					<dim>16</dim>
				</port>
				<port id="1" precision="FP32">
					<dim>256</dim>
					<dim>256</dim>
					<dim>3</dim>
					<dim>3</dim>
				</port>
			</input>
			<output>
				<port id="2" precision="FP32">
					<dim>-1</dim>
					<dim>256</dim>
					<dim>16</dim>
					<dim>16</dim>
				</port>
			</output>
		</layer>
		<layer id="111" name="Reshape_259_compressed" type="Const" version="opset1">
			<data element_type="f16" shape="1, 256, 1, 1" offset="4380456" size="512" />
			<output>
				<port id="0" precision="FP16">
					<dim>1</dim>
					<dim>256</dim>
					<dim>1</dim>
					<dim>1</dim>
				</port>
			</output>
		</layer>
		<layer id="112" name="Reshape_259" type="Convert" version="opset1">
			<data destination_type="f32" />
			<rt_info>
				<attribute name="decompression" version="0" />
			</rt_info>
			<input>
				<port id="0" precision="FP16">
					<dim>1</dim>
					<dim>256</dim>
					<dim>1</dim>
					<dim>1</dim>
				</port>
			</input>
			<output>
				<port id="1" precision="FP32">
					<dim>1</dim>
					<dim>256</dim>
					<dim>1</dim>
					<dim>1</dim>
				</port>
			</output>
		</layer>
		<layer id="113" name="/feature_extractor/feature_extractor/layer3/layer3.1/conv1/Conv" type="Add" version="opset1">
			<data auto_broadcast="numpy" />
			<input>
				<port id="0" precision="FP32">
					<dim>-1</dim>
					<dim>256</dim>
					<dim>16</dim>
					<dim>16</dim>
				</port>
				<port id="1" precision="FP32">
					<dim>1</dim>
					<dim>256</dim>
					<dim>1</dim>
					<dim>1</dim>
				</port>
			</input>
			<output>
				<port id="2" precision="FP32" names="/feature_extractor/feature_extractor/layer3/layer3.1/conv1/Conv_output_0">
					<dim>-1</dim>
					<dim>256</dim>
					<dim>16</dim>
					<dim>16</dim>
				</port>
			</output>
		</layer>
		<layer id="114" name="/feature_extractor/feature_extractor/layer3/layer3.1/act1/Relu" type="ReLU" version="opset1">
			<input>
				<port id="0" precision="FP32">
					<dim>-1</dim>
					<dim>256</dim>
					<dim>16</dim>
					<dim>16</dim>
				</port>
			</input>
			<output>
				<port id="1" precision="FP32" names="/feature_extractor/feature_extractor/layer3/layer3.1/act1/Relu_output_0">
					<dim>-1</dim>
					<dim>256</dim>
					<dim>16</dim>
					<dim>16</dim>
				</port>
			</output>
		</layer>
		<layer id="115" name="onnx::Conv_322_compressed" type="Const" version="opset1">
			<data element_type="f16" shape="256, 256, 3, 3" offset="4380968" size="1179648" />
			<output>
				<port id="0" precision="FP16">
					<dim>256</dim>
					<dim>256</dim>
					<dim>3</dim>
					<dim>3</dim>
				</port>
			</output>
		</layer>
		<layer id="116" name="onnx::Conv_322" type="Convert" version="opset1">
			<data destination_type="f32" />
			<rt_info>
				<attribute name="decompression" version="0" />
			</rt_info>
			<input>
				<port id="0" precision="FP16">
					<dim>256</dim>
					<dim>256</dim>
					<dim>3</dim>
					<dim>3</dim>
				</port>
			</input>
			<output>
				<port id="1" precision="FP32" names="onnx::Conv_322">
					<dim>256</dim>
					<dim>256</dim>
					<dim>3</dim>
					<dim>3</dim>
				</port>
			</output>
		</layer>
		<layer id="117" name="/feature_extractor/feature_extractor/layer3/layer3.1/conv2/Conv/WithoutBiases" type="Convolution" version="opset1">
			<data strides="1, 1" dilations="1, 1" pads_begin="1, 1" pads_end="1, 1" auto_pad="explicit" />
			<input>
				<port id="0" precision="FP32">
					<dim>-1</dim>
					<dim>256</dim>
					<dim>16</dim>
					<dim>16</dim>
				</port>
				<port id="1" precision="FP32">
					<dim>256</dim>
					<dim>256</dim>
					<dim>3</dim>
					<dim>3</dim>
				</port>
			</input>
			<output>
				<port id="2" precision="FP32">
					<dim>-1</dim>
					<dim>256</dim>
					<dim>16</dim>
					<dim>16</dim>
				</port>
			</output>
		</layer>
		<layer id="118" name="Reshape_275_compressed" type="Const" version="opset1">
			<data element_type="f16" shape="1, 256, 1, 1" offset="5560616" size="512" />
			<output>
				<port id="0" precision="FP16">
					<dim>1</dim>
					<dim>256</dim>
					<dim>1</dim>
					<dim>1</dim>
				</port>
			</output>
		</layer>
		<layer id="119" name="Reshape_275" type="Convert" version="opset1">
			<data destination_type="f32" />
			<rt_info>
				<attribute name="decompression" version="0" />
			</rt_info>
			<input>
				<port id="0" precision="FP16">
					<dim>1</dim>
					<dim>256</dim>
					<dim>1</dim>
					<dim>1</dim>
				</port>
			</input>
			<output>
				<port id="1" precision="FP32">
					<dim>1</dim>
					<dim>256</dim>
					<dim>1</dim>
					<dim>1</dim>
				</port>
			</output>
		</layer>
		<layer id="120" name="/feature_extractor/feature_extractor/layer3/layer3.1/conv2/Conv" type="Add" version="opset1">
			<data auto_broadcast="numpy" />
			<input>
				<port id="0" precision="FP32">
					<dim>-1</dim>
					<dim>256</dim>
					<dim>16</dim>
					<dim>16</dim>
				</port>
				<port id="1" precision="FP32">
					<dim>1</dim>
					<dim>256</dim>
					<dim>1</dim>
					<dim>1</dim>
				</port>
			</input>
			<output>
				<port id="2" precision="FP32" names="/feature_extractor/feature_extractor/layer3/layer3.1/conv2/Conv_output_0">
					<dim>-1</dim>
					<dim>256</dim>
					<dim>16</dim>
					<dim>16</dim>
				</port>
			</output>
		</layer>
		<layer id="121" name="/feature_extractor/feature_extractor/layer3/layer3.1/Add" type="Add" version="opset1">
			<data auto_broadcast="numpy" />
			<input>
				<port id="0" precision="FP32">
					<dim>-1</dim>
					<dim>256</dim>
					<dim>16</dim>
					<dim>16</dim>
				</port>
				<port id="1" precision="FP32">
					<dim>-1</dim>
					<dim>256</dim>
					<dim>16</dim>
					<dim>16</dim>
				</port>
			</input>
			<output>
				<port id="2" precision="FP32" names="/feature_extractor/feature_extractor/layer3/layer3.1/Add_output_0">
					<dim>-1</dim>
					<dim>256</dim>
					<dim>16</dim>
					<dim>16</dim>
				</port>
			</output>
		</layer>
		<layer id="122" name="/feature_extractor/feature_extractor/layer3/layer3.1/act2/Relu" type="ReLU" version="opset1">
			<input>
				<port id="0" precision="FP32">
					<dim>-1</dim>
					<dim>256</dim>
					<dim>16</dim>
					<dim>16</dim>
				</port>
			</input>
			<output>
				<port id="1" precision="FP32" names="/feature_extractor/feature_extractor/layer3/layer3.1/act2/Relu_output_0">
					<dim>-1</dim>
					<dim>256</dim>
					<dim>16</dim>
					<dim>16</dim>
				</port>
			</output>
		</layer>
		<layer id="123" name="/Shape_5" type="ShapeOf" version="opset3">
			<data output_type="i64" />
			<input>
				<port id="0" precision="FP32">
					<dim>-1</dim>
					<dim>256</dim>
					<dim>16</dim>
					<dim>16</dim>
				</port>
			</input>
			<output>
				<port id="1" precision="I64" names="/Shape_5_output_0">
					<dim>4</dim>
				</port>
			</output>
		</layer>
		<layer id="124" name="/Constant_10" type="Const" version="opset1">
			<data element_type="i64" shape="1" offset="1364224" size="8" />
			<output>
				<port id="0" precision="I64" names="/Constant_10_output_0">
					<dim>1</dim>
				</port>
			</output>
		</layer>
		<layer id="125" name="/Constant_11" type="Const" version="opset1">
			<data element_type="i64" shape="1" offset="1364232" size="8" />
			<output>
				<port id="0" precision="I64" names="/Constant_11_output_0">
					<dim>1</dim>
				</port>
			</output>
		</layer>
		<layer id="126" name="Broadcast_352" type="Const" version="opset1">
			<data element_type="i64" shape="1" offset="1364240" size="8" />
			<output>
				<port id="0" precision="I64">
					<dim>1</dim>
				</port>
			</output>
		</layer>
		<layer id="127" name="/Slice_1" type="StridedSlice" version="opset1">
			<data begin_mask="0" end_mask="0" new_axis_mask="" shrink_axis_mask="" ellipsis_mask="" />
			<input>
				<port id="0" precision="I64">
					<dim>4</dim>
				</port>
				<port id="1" precision="I64">
					<dim>1</dim>
				</port>
				<port id="2" precision="I64">
					<dim>1</dim>
				</port>
				<port id="3" precision="I64">
					<dim>1</dim>
				</port>
			</input>
			<output>
				<port id="4" precision="I64" names="/Slice_1_output_0">
					<dim>2</dim>
				</port>
			</output>
		</layer>
		<layer id="128" name="/Shape_3" type="ShapeOf" version="opset3">
			<data output_type="i64" />
			<input>
				<port id="0" precision="FP32">
					<dim>-1</dim>
					<dim>192</dim>
					<dim>64</dim>
					<dim>64</dim>
				</port>
			</input>
			<output>
				<port id="1" precision="I64" names="/Shape_3_output_0,/Shape_4_output_0">
					<dim>4</dim>
				</port>
			</output>
		</layer>
		<layer id="129" name="Constant_2749" type="Const" version="opset1">
			<data element_type="i64" shape="2" offset="1364248" size="16" />
			<output>
				<port id="0" precision="I64">
					<dim>2</dim>
				</port>
			</output>
		</layer>
		<layer id="130" name="Constant_2750" type="Const" version="opset1">
			<data element_type="i64" shape="" offset="1364224" size="8" />
			<output>
				<port id="0" precision="I64" />
			</output>
		</layer>
		<layer id="131" name="Gather_2751" type="Gather" version="opset8">
			<data batch_dims="0" />
			<input>
				<port id="0" precision="I64">
					<dim>4</dim>
				</port>
				<port id="1" precision="I64">
					<dim>2</dim>
				</port>
				<port id="2" precision="I64" />
			</input>
			<output>
				<port id="3" precision="I64" names="/Cast_1_output_0,/Concat_3_output_0">
					<dim>2</dim>
				</port>
			</output>
		</layer>
		<layer id="132" name="/Concat_4" type="Concat" version="opset1">
			<data axis="0" />
			<input>
				<port id="0" precision="I64">
					<dim>2</dim>
				</port>
				<port id="1" precision="I64">
					<dim>2</dim>
				</port>
			</input>
			<output>
				<port id="2" precision="I64" names="/Concat_4_output_0">
					<dim>4</dim>
				</port>
			</output>
		</layer>
		<layer id="133" name="/Resize_1" type="Interpolate" version="opset11">
			<data mode="nearest" shape_calculation_mode="sizes" coordinate_transformation_mode="asymmetric" nearest_mode="floor" antialias="false" pads_begin="0, 0, 0, 0" pads_end="0, 0, 0, 0" cube_coeff="-0.75" />
			<input>
				<port id="0" precision="FP32">
					<dim>-1</dim>
					<dim>256</dim>
					<dim>16</dim>
					<dim>16</dim>
				</port>
				<port id="1" precision="I64">
					<dim>4</dim>
				</port>
			</input>
			<output>
				<port id="2" precision="FP32" names="/Resize_1_output_0">
					<dim>-1</dim>
					<dim>256</dim>
					<dim>64</dim>
					<dim>64</dim>
				</port>
			</output>
		</layer>
		<layer id="134" name="/Concat_5" type="Concat" version="opset1">
			<data axis="1" />
			<input>
				<port id="0" precision="FP32">
					<dim>-1</dim>
					<dim>192</dim>
					<dim>64</dim>
					<dim>64</dim>
				</port>
				<port id="1" precision="FP32">
					<dim>-1</dim>
					<dim>256</dim>
					<dim>64</dim>
					<dim>64</dim>
				</port>
			</input>
			<output>
				<port id="2" precision="FP32" names="/Concat_5_output_0">
					<dim>-1</dim>
					<dim>448</dim>
					<dim>64</dim>
					<dim>64</dim>
				</port>
			</output>
		</layer>
		<layer id="135" name="onnx::Gather_324" type="Const" version="opset1">
			<data element_type="i64" shape="100" offset="5561128" size="800" />
			<output>
				<port id="0" precision="I64" names="onnx::Gather_324">
					<dim>100</dim>
				</port>
			</output>
		</layer>
		<layer id="136" name="Constant_385" type="Const" version="opset1">
			<data element_type="i64" shape="" offset="1364240" size="8" />
			<output>
				<port id="0" precision="I64" />
			</output>
		</layer>
		<layer id="137" name="/Gather_4" type="Gather" version="opset8">
			<data batch_dims="0" />
			<input>
				<port id="0" precision="FP32">
					<dim>-1</dim>
					<dim>448</dim>
					<dim>64</dim>
					<dim>64</dim>
				</port>
				<port id="1" precision="I64">
					<dim>100</dim>
				</port>
				<port id="2" precision="I64" />
			</input>
			<output>
				<port id="3" precision="FP32" names="/Gather_4_output_0">
					<dim>-1</dim>
					<dim>100</dim>
					<dim>64</dim>
					<dim>64</dim>
				</port>
			</output>
		</layer>
		<layer id="138" name="Constant_2889" type="Const" version="opset1">
			<data element_type="i64" shape="2" offset="5561928" size="16" />
			<output>
				<port id="0" precision="I64">
					<dim>2</dim>
				</port>
			</output>
		</layer>
		<layer id="139" name="/anomaly_map_generator/Shape" type="ShapeOf" version="opset3">
			<data output_type="i64" />
			<input>
				<port id="0" precision="FP32">
					<dim>-1</dim>
					<dim>100</dim>
					<dim>64</dim>
					<dim>64</dim>
				</port>
			</input>
			<output>
				<port id="1" precision="I64" names="/anomaly_map_generator/Shape_1_output_0,/anomaly_map_generator/Shape_2_output_0,/anomaly_map_generator/Shape_3_output_0,/anomaly_map_generator/Shape_output_0">
					<dim>4</dim>
				</port>
			</output>
		</layer>
		<layer id="140" name="/anomaly_map_generator/Constant_2" type="Const" version="opset1">
			<data element_type="i64" shape="" offset="1364232" size="8" />
			<output>
				<port id="0" precision="I64" names="/anomaly_map_generator/Constant_2_output_0" />
			</output>
		</layer>
		<layer id="141" name="Constant_397" type="Const" version="opset1">
			<data element_type="i64" shape="" offset="1364224" size="8" />
			<output>
				<port id="0" precision="I64" />
			</output>
		</layer>
		<layer id="142" name="/anomaly_map_generator/Gather_2" type="Gather" version="opset8">
			<data batch_dims="0" />
			<input>
				<port id="0" precision="I64">
					<dim>4</dim>
				</port>
				<port id="1" precision="I64" />
				<port id="2" precision="I64" />
			</input>
			<output>
				<port id="3" precision="I64" names="/anomaly_map_generator/Gather_2_output_0" />
			</output>
		</layer>
		<layer id="143" name="/anomaly_map_generator/Constant_3" type="Const" version="opset1">
			<data element_type="i64" shape="" offset="5561944" size="8" />
			<output>
				<port id="0" precision="I64" names="/anomaly_map_generator/Constant_3_output_0" />
			</output>
		</layer>
		<layer id="144" name="Constant_401" type="Const" version="opset1">
			<data element_type="i64" shape="" offset="1364224" size="8" />
			<output>
				<port id="0" precision="I64" />
			</output>
		</layer>
		<layer id="145" name="/anomaly_map_generator/Gather_3" type="Gather" version="opset8">
			<data batch_dims="0" />
			<input>
				<port id="0" precision="I64">
					<dim>4</dim>
				</port>
				<port id="1" precision="I64" />
				<port id="2" precision="I64" />
			</input>
			<output>
				<port id="3" precision="I64" names="/anomaly_map_generator/Gather_3_output_0" />
			</output>
		</layer>
		<layer id="146" name="/anomaly_map_generator/Mul" type="Multiply" version="opset1">
			<data auto_broadcast="numpy" />
			<input>
				<port id="0" precision="I64" />
				<port id="1" precision="I64" />
			</input>
			<output>
				<port id="2" precision="I64" names="/anomaly_map_generator/Mul_output_0" />
			</output>
		</layer>
		<layer id="147" name="Constant_408" type="Const" version="opset1">
			<data element_type="i64" shape="1" offset="1364224" size="8" />
			<output>
				<port id="0" precision="I64">
					<dim>1</dim>
				</port>
			</output>
		</layer>
		<layer id="148" name="/anomaly_map_generator/Unsqueeze_2" type="Unsqueeze" version="opset1">
			<input>
				<port id="0" precision="I64" />
				<port id="1" precision="I64">
					<dim>1</dim>
				</port>
			</input>
			<output>
				<port id="2" precision="I64" names="/anomaly_map_generator/Unsqueeze_2_output_0">
					<dim>1</dim>
				</port>
			</output>
		</layer>
		<layer id="149" name="/anomaly_map_generator/Concat" type="Concat" version="opset1">
			<data axis="0" />
			<input>
				<port id="0" precision="I64">
					<dim>2</dim>
				</port>
				<port id="1" precision="I64">
					<dim>1</dim>
				</port>
			</input>
			<output>
				<port id="2" precision="I64">
					<dim>3</dim>
				</port>
			</output>
		</layer>
		<layer id="150" name="/anomaly_map_generator/Reshape" type="Reshape" version="opset1">
			<data special_zero="true" />
			<input>
				<port id="0" precision="FP32">
					<dim>-1</dim>
					<dim>100</dim>
					<dim>64</dim>
					<dim>64</dim>
				</port>
				<port id="1" precision="I64">
					<dim>3</dim>
				</port>
			</input>
			<output>
				<port id="2" precision="FP32" names="/anomaly_map_generator/Reshape_output_0">
					<dim>-1</dim>
					<dim>100</dim>
					<dim>4096</dim>
				</port>
			</output>
		</layer>
		<layer id="151" name="Constant_3283_compressed" type="Const" version="opset1">
			<data element_type="f16" shape="1, 100, 4096" offset="5561952" size="819200" />
			<output>
				<port id="0" precision="FP16">
					<dim>1</dim>
					<dim>100</dim>
					<dim>4096</dim>
				</port>
			</output>
		</layer>
		<layer id="152" name="Constant_3283" type="Convert" version="opset1">
			<data destination_type="f32" />
			<rt_info>
				<attribute name="decompression" version="0" />
			</rt_info>
			<input>
				<port id="0" precision="FP16">
					<dim>1</dim>
					<dim>100</dim>
					<dim>4096</dim>
				</port>
			</input>
			<output>
				<port id="1" precision="FP32">
					<dim>1</dim>
					<dim>100</dim>
					<dim>4096</dim>
				</port>
			</output>
		</layer>
		<layer id="153" name="/anomaly_map_generator/Sub" type="Add" version="opset1">
			<data auto_broadcast="numpy" />
			<input>
				<port id="0" precision="FP32">
					<dim>-1</dim>
					<dim>100</dim>
					<dim>4096</dim>
				</port>
				<port id="1" precision="FP32">
					<dim>1</dim>
					<dim>100</dim>
					<dim>4096</dim>
				</port>
			</input>
			<output>
				<port id="2" precision="FP32" names="/anomaly_map_generator/Sub_output_0">
					<dim>-1</dim>
					<dim>100</dim>
					<dim>4096</dim>
				</port>
			</output>
		</layer>
		<layer id="154" name="Constant_431" type="Const" version="opset1">
			<data element_type="i64" shape="3" offset="6381152" size="24" />
			<output>
				<port id="0" precision="I64">
					<dim>3</dim>
				</port>
			</output>
		</layer>
		<layer id="155" name="/anomaly_map_generator/Transpose" type="Transpose" version="opset1">
			<input>
				<port id="0" precision="FP32">
					<dim>-1</dim>
					<dim>100</dim>
					<dim>4096</dim>
				</port>
				<port id="1" precision="I64">
					<dim>3</dim>
				</port>
			</input>
			<output>
				<port id="2" precision="FP32" names="/anomaly_map_generator/Transpose_output_0">
					<dim>4096</dim>
					<dim>-1</dim>
					<dim>100</dim>
				</port>
			</output>
		</layer>
		<layer id="156" name="onnx::MatMul_326_compressed" type="Const" version="opset1">
			<data element_type="f16" shape="4096, 100, 100" offset="6381176" size="81920000" />
			<output>
				<port id="0" precision="FP16">
					<dim>4096</dim>
					<dim>100</dim>
					<dim>100</dim>
				</port>
			</output>
		</layer>
		<layer id="157" name="onnx::MatMul_326" type="Convert" version="opset1">
			<data destination_type="f32" />
			<rt_info>
				<attribute name="decompression" version="0" />
			</rt_info>
			<input>
				<port id="0" precision="FP16">
					<dim>4096</dim>
					<dim>100</dim>
					<dim>100</dim>
				</port>
			</input>
			<output>
				<port id="1" precision="FP32" names="onnx::MatMul_326">
					<dim>4096</dim>
					<dim>100</dim>
					<dim>100</dim>
				</port>
			</output>
		</layer>
		<layer id="158" name="/anomaly_map_generator/MatMul" type="MatMul" version="opset1">
			<data transpose_a="false" transpose_b="false" />
			<input>
				<port id="0" precision="FP32">
					<dim>4096</dim>
					<dim>-1</dim>
					<dim>100</dim>
				</port>
				<port id="1" precision="FP32">
					<dim>4096</dim>
					<dim>100</dim>
					<dim>100</dim>
				</port>
			</input>
			<output>
				<port id="2" precision="FP32" names="/anomaly_map_generator/MatMul_output_0">
					<dim>4096</dim>
					<dim>-1</dim>
					<dim>100</dim>
				</port>
			</output>
		</layer>
		<layer id="159" name="/anomaly_map_generator/Mul_1" type="Multiply" version="opset1">
			<data auto_broadcast="numpy" />
			<input>
				<port id="0" precision="FP32">
					<dim>4096</dim>
					<dim>-1</dim>
					<dim>100</dim>
				</port>
				<port id="1" precision="FP32">
					<dim>4096</dim>
					<dim>-1</dim>
					<dim>100</dim>
				</port>
			</input>
			<output>
				<port id="2" precision="FP32" names="/anomaly_map_generator/Mul_1_output_0">
					<dim>4096</dim>
					<dim>-1</dim>
					<dim>100</dim>
				</port>
			</output>
		</layer>
		<layer id="160" name="Constant_435" type="Const" version="opset1">
			<data element_type="i64" shape="1" offset="1364232" size="8" />
			<output>
				<port id="0" precision="I64">
					<dim>1</dim>
				</port>
			</output>
		</layer>
		<layer id="161" name="/anomaly_map_generator/ReduceSum" type="ReduceSum" version="opset1">
			<data keep_dims="false" />
			<input>
				<port id="0" precision="FP32">
					<dim>4096</dim>
					<dim>-1</dim>
					<dim>100</dim>
				</port>
				<port id="1" precision="I64">
					<dim>1</dim>
				</port>
			</input>
			<output>
				<port id="2" precision="FP32" names="/anomaly_map_generator/ReduceSum_output_0">
					<dim>4096</dim>
					<dim>-1</dim>
				</port>
			</output>
		</layer>
		<layer id="162" name="Constant_437" type="Const" version="opset1">
			<data element_type="i64" shape="2" offset="88301176" size="16" />
			<output>
				<port id="0" precision="I64">
					<dim>2</dim>
				</port>
			</output>
		</layer>
		<layer id="163" name="/anomaly_map_generator/Transpose_1" type="Transpose" version="opset1">
			<input>
				<port id="0" precision="FP32">
					<dim>4096</dim>
					<dim>-1</dim>
				</port>
				<port id="1" precision="I64">
					<dim>2</dim>
				</port>
			</input>
			<output>
				<port id="2" precision="FP32" names="/anomaly_map_generator/Transpose_1_output_0">
					<dim>-1</dim>
					<dim>4096</dim>
				</port>
			</output>
		</layer>
		<layer id="164" name="Constant_2718" type="Const" version="opset1">
			<data element_type="i64" shape="1" offset="1364224" size="8" />
			<output>
				<port id="0" precision="I64">
					<dim>1</dim>
				</port>
			</output>
		</layer>
		<layer id="165" name="Constant_389" type="Const" version="opset1">
			<data element_type="i64" shape="" offset="1364224" size="8" />
			<output>
				<port id="0" precision="I64" />
			</output>
		</layer>
		<layer id="166" name="/anomaly_map_generator/Gather" type="Gather" version="opset8">
			<data batch_dims="0" />
			<input>
				<port id="0" precision="I64">
					<dim>4</dim>
				</port>
				<port id="1" precision="I64">
					<dim>1</dim>
				</port>
				<port id="2" precision="I64" />
			</input>
			<output>
				<port id="3" precision="I64" names="/anomaly_map_generator/Gather_output_0,/anomaly_map_generator/Unsqueeze_3_output_0,/anomaly_map_generator/Unsqueeze_output_0">
					<dim>1</dim>
				</port>
			</output>
		</layer>
		<layer id="167" name="/anomaly_map_generator/Constant_4" type="Const" version="opset1">
			<data element_type="i64" shape="1" offset="1364240" size="8" />
			<output>
				<port id="0" precision="I64" names="/anomaly_map_generator/Constant_4_output_0">
					<dim>1</dim>
				</port>
			</output>
		</layer>
		<layer id="168" name="Constant_442" type="Const" version="opset1">
			<data element_type="i64" shape="1" offset="1364224" size="8" />
			<output>
				<port id="0" precision="I64">
					<dim>1</dim>
				</port>
			</output>
		</layer>
		<layer id="169" name="/anomaly_map_generator/Unsqueeze_4" type="Unsqueeze" version="opset1">
			<input>
				<port id="0" precision="I64" />
				<port id="1" precision="I64">
					<dim>1</dim>
				</port>
			</input>
			<output>
				<port id="2" precision="I64" names="/anomaly_map_generator/Unsqueeze_4_output_0">
					<dim>1</dim>
				</port>
			</output>
		</layer>
		<layer id="170" name="Constant_444" type="Const" version="opset1">
			<data element_type="i64" shape="1" offset="1364224" size="8" />
			<output>
				<port id="0" precision="I64">
					<dim>1</dim>
				</port>
			</output>
		</layer>
		<layer id="171" name="/anomaly_map_generator/Unsqueeze_5" type="Unsqueeze" version="opset1">
			<input>
				<port id="0" precision="I64" />
				<port id="1" precision="I64">
					<dim>1</dim>
				</port>
			</input>
			<output>
				<port id="2" precision="I64" names="/anomaly_map_generator/Unsqueeze_5_output_0">
					<dim>1</dim>
				</port>
			</output>
		</layer>
		<layer id="172" name="/anomaly_map_generator/Concat_1" type="Concat" version="opset1">
			<data axis="0" />
			<input>
				<port id="0" precision="I64">
					<dim>1</dim>
				</port>
				<port id="1" precision="I64">
					<dim>1</dim>
				</port>
				<port id="2" precision="I64">
					<dim>1</dim>
				</port>
				<port id="3" precision="I64">
					<dim>1</dim>
				</port>
			</input>
			<output>
				<port id="4" precision="I64" names="/anomaly_map_generator/Concat_1_output_0">
					<dim>4</dim>
				</port>
			</output>
		</layer>
		<layer id="173" name="/anomaly_map_generator/Reshape_1" type="Reshape" version="opset1">
			<data special_zero="true" />
			<input>
				<port id="0" precision="FP32">
					<dim>-1</dim>
					<dim>4096</dim>
				</port>
				<port id="1" precision="I64">
					<dim>4</dim>
				</port>
			</input>
			<output>
				<port id="2" precision="FP32" names="/anomaly_map_generator/Reshape_1_output_0">
					<dim>-1</dim>
					<dim>1</dim>
					<dim>64</dim>
					<dim>64</dim>
				</port>
			</output>
		</layer>
		<layer id="174" name="/anomaly_map_generator/Clip" type="Clamp" version="opset1">
			<data min="0" max="3.4028234663852886e+38" />
			<input>
				<port id="0" precision="FP32">
					<dim>-1</dim>
					<dim>1</dim>
					<dim>64</dim>
					<dim>64</dim>
				</port>
			</input>
			<output>
				<port id="1" precision="FP32" names="/anomaly_map_generator/Clip_output_0">
					<dim>-1</dim>
					<dim>1</dim>
					<dim>64</dim>
					<dim>64</dim>
				</port>
			</output>
		</layer>
		<layer id="175" name="/anomaly_map_generator/Sqrt" type="Sqrt" version="opset1">
			<input>
				<port id="0" precision="FP32">
					<dim>-1</dim>
					<dim>1</dim>
					<dim>64</dim>
					<dim>64</dim>
				</port>
			</input>
			<output>
				<port id="1" precision="FP32" names="/anomaly_map_generator/Sqrt_output_0">
					<dim>-1</dim>
					<dim>1</dim>
					<dim>64</dim>
					<dim>64</dim>
				</port>
			</output>
		</layer>
		<layer id="176" name="/anomaly_map_generator/Shape_4" type="ShapeOf" version="opset3">
			<data output_type="i64" />
			<input>
				<port id="0" precision="FP32">
					<dim>-1</dim>
					<dim>1</dim>
					<dim>64</dim>
					<dim>64</dim>
				</port>
			</input>
			<output>
				<port id="1" precision="I64" names="/anomaly_map_generator/Shape_4_output_0">
					<dim>4</dim>
				</port>
			</output>
		</layer>
		<layer id="177" name="/anomaly_map_generator/Constant_7" type="Const" version="opset1">
			<data element_type="i64" shape="1" offset="1364224" size="8" />
			<output>
				<port id="0" precision="I64" names="/anomaly_map_generator/Constant_7_output_0">
					<dim>1</dim>
				</port>
			</output>
		</layer>
		<layer id="178" name="/anomaly_map_generator/Constant_8" type="Const" version="opset1">
			<data element_type="i64" shape="1" offset="1364232" size="8" />
			<output>
				<port id="0" precision="I64" names="/anomaly_map_generator/Constant_8_output_0">
					<dim>1</dim>
				</port>
			</output>
		</layer>
		<layer id="179" name="Broadcast_474" type="Const" version="opset1">
			<data element_type="i64" shape="1" offset="1364240" size="8" />
			<output>
				<port id="0" precision="I64">
					<dim>1</dim>
				</port>
			</output>
		</layer>
		<layer id="180" name="/anomaly_map_generator/Slice" type="StridedSlice" version="opset1">
			<data begin_mask="0" end_mask="0" new_axis_mask="" shrink_axis_mask="" ellipsis_mask="" />
			<input>
				<port id="0" precision="I64">
					<dim>4</dim>
				</port>
				<port id="1" precision="I64">
					<dim>1</dim>
				</port>
				<port id="2" precision="I64">
					<dim>1</dim>
				</port>
				<port id="3" precision="I64">
					<dim>1</dim>
				</port>
			</input>
			<output>
				<port id="4" precision="I64" names="/anomaly_map_generator/Slice_output_0">
					<dim>2</dim>
				</port>
			</output>
		</layer>
		<layer id="181" name="/anomaly_map_generator/Constant_9" type="Const" version="opset1">
			<data element_type="i64" shape="2" offset="88301192" size="16" />
			<output>
				<port id="0" precision="I64" names="/anomaly_map_generator/Constant_9_output_0">
					<dim>2</dim>
				</port>
			</output>
		</layer>
		<layer id="182" name="/anomaly_map_generator/Concat_2" type="Concat" version="opset1">
			<data axis="0" />
			<input>
				<port id="0" precision="I64">
					<dim>2</dim>
				</port>
				<port id="1" precision="I64">
					<dim>2</dim>
				</port>
			</input>
			<output>
				<port id="2" precision="I64" names="/anomaly_map_generator/Concat_2_output_0">
					<dim>4</dim>
				</port>
			</output>
		</layer>
		<layer id="183" name="/anomaly_map_generator/Resize" type="Interpolate" version="opset11">
			<data mode="linear_onnx" shape_calculation_mode="sizes" coordinate_transformation_mode="half_pixel" nearest_mode="floor" antialias="false" pads_begin="0, 0, 0, 0" pads_end="0, 0, 0, 0" cube_coeff="-0.75" />
			<input>
				<port id="0" precision="FP32">
					<dim>-1</dim>
					<dim>1</dim>
					<dim>64</dim>
					<dim>64</dim>
				</port>
				<port id="1" precision="I64">
					<dim>4</dim>
				</port>
			</input>
			<output>
				<port id="2" precision="FP32" names="/anomaly_map_generator/Resize_output_0">
					<dim>-1</dim>
					<dim>1</dim>
					<dim>256</dim>
					<dim>256</dim>
				</port>
			</output>
		</layer>
		<layer id="184" name="Split_530.0" type="Const" version="opset1">
			<data element_type="i64" shape="4" offset="88301208" size="32" />
			<output>
				<port id="0" precision="I64">
					<dim>4</dim>
				</port>
			</output>
		</layer>
		<layer id="185" name="Split_530.1" type="Const" version="opset1">
			<data element_type="i64" shape="4" offset="88301208" size="32" />
			<output>
				<port id="0" precision="I64">
					<dim>4</dim>
				</port>
			</output>
		</layer>
		<layer id="186" name="Constant_528_compressed" type="Const" version="opset1">
			<data element_type="f16" shape="" offset="88301240" size="2" />
			<output>
				<port id="0" precision="FP16" />
			</output>
		</layer>
		<layer id="187" name="Constant_528" type="Convert" version="opset1">
			<data destination_type="f32" />
			<rt_info>
				<attribute name="decompression" version="0" />
			</rt_info>
			<input>
				<port id="0" precision="FP16" />
			</input>
			<output>
				<port id="1" precision="FP32" />
			</output>
		</layer>
		<layer id="188" name="/anomaly_map_generator/blur/Pad" type="Pad" version="opset12">
			<data pad_mode="reflect" />
			<input>
				<port id="0" precision="FP32">
					<dim>-1</dim>
					<dim>1</dim>
					<dim>256</dim>
					<dim>256</dim>
				</port>
				<port id="1" precision="I64">
					<dim>4</dim>
				</port>
				<port id="2" precision="I64">
					<dim>4</dim>
				</port>
				<port id="3" precision="FP32" />
			</input>
			<output>
				<port id="4" precision="FP32" names="/anomaly_map_generator/blur/Pad_output_0">
					<dim>-1</dim>
					<dim>1</dim>
					<dim>288</dim>
					<dim>288</dim>
				</port>
			</output>
		</layer>
		<layer id="189" name="anomaly_map_generator.blur.kernel_compressed" type="Const" version="opset1">
			<data element_type="f16" shape="1, 1, 33, 33" offset="88301242" size="2178" />
			<output>
				<port id="0" precision="FP16">
					<dim>1</dim>
					<dim>1</dim>
					<dim>33</dim>
					<dim>33</dim>
				</port>
			</output>
		</layer>
		<layer id="190" name="anomaly_map_generator.blur.kernel" type="Convert" version="opset1">
			<data destination_type="f32" />
			<rt_info>
				<attribute name="decompression" version="0" />
			</rt_info>
			<input>
				<port id="0" precision="FP16">
					<dim>1</dim>
					<dim>1</dim>
					<dim>33</dim>
					<dim>33</dim>
				</port>
			</input>
			<output>
				<port id="1" precision="FP32" names="anomaly_map_generator.blur.kernel">
					<dim>1</dim>
					<dim>1</dim>
					<dim>33</dim>
					<dim>33</dim>
				</port>
			</output>
		</layer>
		<layer id="191" name="/anomaly_map_generator/blur/Conv" type="Convolution" version="opset1">
			<data strides="1, 1" dilations="1, 1" pads_begin="0, 0" pads_end="0, 0" auto_pad="explicit" />
			<input>
				<port id="0" precision="FP32">
					<dim>-1</dim>
					<dim>1</dim>
					<dim>288</dim>
					<dim>288</dim>
				</port>
				<port id="1" precision="FP32">
					<dim>1</dim>
					<dim>1</dim>
					<dim>33</dim>
					<dim>33</dim>
				</port>
			</input>
			<output>
				<port id="2" precision="FP32" names="/anomaly_map_generator/blur/Conv_output_0">
					<dim>-1</dim>
					<dim>1</dim>
					<dim>256</dim>
					<dim>256</dim>
				</port>
			</output>
		</layer>
		<layer id="192" name="/anomaly_map_generator/blur/Shape" type="ShapeOf" version="opset3">
			<data output_type="i64" />
			<input>
				<port id="0" precision="FP32">
					<dim>-1</dim>
					<dim>1</dim>
					<dim>256</dim>
					<dim>256</dim>
				</port>
			</input>
			<output>
				<port id="1" precision="I64" names="/anomaly_map_generator/blur/Concat_1_output_0,/anomaly_map_generator/blur/Shape_1_output_0,/anomaly_map_generator/blur/Shape_2_output_0,/anomaly_map_generator/blur/Shape_3_output_0,/anomaly_map_generator/blur/Shape_output_0">
					<dim>4</dim>
				</port>
			</output>
		</layer>
		<layer id="193" name="output" type="Reshape" version="opset1">
			<data special_zero="true" />
			<input>
				<port id="0" precision="FP32">
					<dim>-1</dim>
					<dim>1</dim>
					<dim>256</dim>
					<dim>256</dim>
				</port>
				<port id="1" precision="I64">
					<dim>4</dim>
				</port>
			</input>
			<output>
				<port id="2" precision="FP32" names="output">
					<dim>-1</dim>
					<dim>1</dim>
					<dim>256</dim>
					<dim>256</dim>
				</port>
			</output>
		</layer>
		<layer id="194" name="output/sink_port_0" type="Result" version="opset1">
			<input>
				<port id="0" precision="FP32">
					<dim>-1</dim>
					<dim>1</dim>
					<dim>256</dim>
					<dim>256</dim>
				</port>
			</input>
		</layer>
	</layers>
	<edges>
		<edge from-layer="0" from-port="0" to-layer="3" to-port="0" />
		<edge from-layer="1" from-port="0" to-layer="2" to-port="0" />
		<edge from-layer="2" from-port="1" to-layer="3" to-port="1" />
		<edge from-layer="3" from-port="2" to-layer="6" to-port="0" />
		<edge from-layer="4" from-port="0" to-layer="5" to-port="0" />
		<edge from-layer="5" from-port="1" to-layer="6" to-port="1" />
		<edge from-layer="6" from-port="2" to-layer="7" to-port="0" />
		<edge from-layer="7" from-port="1" to-layer="8" to-port="0" />
		<edge from-layer="8" from-port="1" to-layer="22" to-port="1" />
		<edge from-layer="8" from-port="1" to-layer="11" to-port="0" />
		<edge from-layer="9" from-port="0" to-layer="10" to-port="0" />
		<edge from-layer="10" from-port="1" to-layer="11" to-port="1" />
		<edge from-layer="11" from-port="2" to-layer="14" to-port="0" />
		<edge from-layer="12" from-port="0" to-layer="13" to-port="0" />
		<edge from-layer="13" from-port="1" to-layer="14" to-port="1" />
		<edge from-layer="14" from-port="2" to-layer="15" to-port="0" />
		<edge from-layer="15" from-port="1" to-layer="18" to-port="0" />
		<edge from-layer="16" from-port="0" to-layer="17" to-port="0" />
		<edge from-layer="17" from-port="1" to-layer="18" to-port="1" />
		<edge from-layer="18" from-port="2" to-layer="21" to-port="0" />
		<edge from-layer="19" from-port="0" to-layer="20" to-port="0" />
		<edge from-layer="20" from-port="1" to-layer="21" to-port="1" />
		<edge from-layer="21" from-port="2" to-layer="22" to-port="0" />
		<edge from-layer="22" from-port="2" to-layer="23" to-port="0" />
		<edge from-layer="23" from-port="1" to-layer="26" to-port="0" />
		<edge from-layer="23" from-port="1" to-layer="37" to-port="1" />
		<edge from-layer="24" from-port="0" to-layer="25" to-port="0" />
		<edge from-layer="25" from-port="1" to-layer="26" to-port="1" />
		<edge from-layer="26" from-port="2" to-layer="29" to-port="0" />
		<edge from-layer="27" from-port="0" to-layer="28" to-port="0" />
		<edge from-layer="28" from-port="1" to-layer="29" to-port="1" />
		<edge from-layer="29" from-port="2" to-layer="30" to-port="0" />
		<edge from-layer="30" from-port="1" to-layer="33" to-port="0" />
		<edge from-layer="31" from-port="0" to-layer="32" to-port="0" />
		<edge from-layer="32" from-port="1" to-layer="33" to-port="1" />
		<edge from-layer="33" from-port="2" to-layer="36" to-port="0" />
		<edge from-layer="34" from-port="0" to-layer="35" to-port="0" />
		<edge from-layer="35" from-port="1" to-layer="36" to-port="1" />
		<edge from-layer="36" from-port="2" to-layer="37" to-port="0" />
		<edge from-layer="37" from-port="2" to-layer="38" to-port="0" />
		<edge from-layer="38" from-port="1" to-layer="86" to-port="0" />
		<edge from-layer="38" from-port="1" to-layer="80" to-port="0" />
		<edge from-layer="38" from-port="1" to-layer="54" to-port="0" />
		<edge from-layer="38" from-port="1" to-layer="41" to-port="0" />
		<edge from-layer="39" from-port="0" to-layer="40" to-port="0" />
		<edge from-layer="40" from-port="1" to-layer="41" to-port="1" />
		<edge from-layer="41" from-port="2" to-layer="44" to-port="0" />
		<edge from-layer="42" from-port="0" to-layer="43" to-port="0" />
		<edge from-layer="43" from-port="1" to-layer="44" to-port="1" />
		<edge from-layer="44" from-port="2" to-layer="45" to-port="0" />
		<edge from-layer="45" from-port="1" to-layer="48" to-port="0" />
		<edge from-layer="46" from-port="0" to-layer="47" to-port="0" />
		<edge from-layer="47" from-port="1" to-layer="48" to-port="1" />
		<edge from-layer="48" from-port="2" to-layer="51" to-port="0" />
		<edge from-layer="49" from-port="0" to-layer="50" to-port="0" />
		<edge from-layer="50" from-port="1" to-layer="51" to-port="1" />
		<edge from-layer="51" from-port="2" to-layer="58" to-port="0" />
		<edge from-layer="52" from-port="0" to-layer="53" to-port="0" />
		<edge from-layer="53" from-port="1" to-layer="54" to-port="1" />
		<edge from-layer="54" from-port="2" to-layer="57" to-port="0" />
		<edge from-layer="55" from-port="0" to-layer="56" to-port="0" />
		<edge from-layer="56" from-port="1" to-layer="57" to-port="1" />
		<edge from-layer="57" from-port="2" to-layer="58" to-port="1" />
		<edge from-layer="58" from-port="2" to-layer="59" to-port="0" />
		<edge from-layer="59" from-port="1" to-layer="62" to-port="0" />
		<edge from-layer="59" from-port="1" to-layer="73" to-port="1" />
		<edge from-layer="60" from-port="0" to-layer="61" to-port="0" />
		<edge from-layer="61" from-port="1" to-layer="62" to-port="1" />
		<edge from-layer="62" from-port="2" to-layer="65" to-port="0" />
		<edge from-layer="63" from-port="0" to-layer="64" to-port="0" />
		<edge from-layer="64" from-port="1" to-layer="65" to-port="1" />
		<edge from-layer="65" from-port="2" to-layer="66" to-port="0" />
		<edge from-layer="66" from-port="1" to-layer="69" to-port="0" />
		<edge from-layer="67" from-port="0" to-layer="68" to-port="0" />
		<edge from-layer="68" from-port="1" to-layer="69" to-port="1" />
		<edge from-layer="69" from-port="2" to-layer="72" to-port="0" />
		<edge from-layer="70" from-port="0" to-layer="71" to-port="0" />
		<edge from-layer="71" from-port="1" to-layer="72" to-port="1" />
		<edge from-layer="72" from-port="2" to-layer="73" to-port="0" />
		<edge from-layer="73" from-port="2" to-layer="74" to-port="0" />
		<edge from-layer="74" from-port="1" to-layer="89" to-port="0" />
		<edge from-layer="74" from-port="1" to-layer="85" to-port="0" />
		<edge from-layer="74" from-port="1" to-layer="102" to-port="0" />
		<edge from-layer="74" from-port="1" to-layer="75" to-port="0" />
		<edge from-layer="75" from-port="1" to-layer="79" to-port="0" />
		<edge from-layer="76" from-port="0" to-layer="79" to-port="1" />
		<edge from-layer="77" from-port="0" to-layer="79" to-port="2" />
		<edge from-layer="78" from-port="0" to-layer="79" to-port="3" />
		<edge from-layer="79" from-port="4" to-layer="84" to-port="0" />
		<edge from-layer="80" from-port="1" to-layer="83" to-port="0" />
		<edge from-layer="81" from-port="0" to-layer="83" to-port="1" />
		<edge from-layer="82" from-port="0" to-layer="83" to-port="2" />
		<edge from-layer="83" from-port="3" to-layer="84" to-port="1" />
		<edge from-layer="84" from-port="2" to-layer="85" to-port="1" />
		<edge from-layer="85" from-port="2" to-layer="86" to-port="1" />
		<edge from-layer="86" from-port="2" to-layer="134" to-port="0" />
		<edge from-layer="86" from-port="2" to-layer="128" to-port="0" />
		<edge from-layer="87" from-port="0" to-layer="88" to-port="0" />
		<edge from-layer="88" from-port="1" to-layer="89" to-port="1" />
		<edge from-layer="89" from-port="2" to-layer="92" to-port="0" />
		<edge from-layer="90" from-port="0" to-layer="91" to-port="0" />
		<edge from-layer="91" from-port="1" to-layer="92" to-port="1" />
		<edge from-layer="92" from-port="2" to-layer="93" to-port="0" />
		<edge from-layer="93" from-port="1" to-layer="96" to-port="0" />
		<edge from-layer="94" from-port="0" to-layer="95" to-port="0" />
		<edge from-layer="95" from-port="1" to-layer="96" to-port="1" />
		<edge from-layer="96" from-port="2" to-layer="99" to-port="0" />
		<edge from-layer="97" from-port="0" to-layer="98" to-port="0" />
		<edge from-layer="98" from-port="1" to-layer="99" to-port="1" />
		<edge from-layer="99" from-port="2" to-layer="106" to-port="0" />
		<edge from-layer="100" from-port="0" to-layer="101" to-port="0" />
		<edge from-layer="101" from-port="1" to-layer="102" to-port="1" />
		<edge from-layer="102" from-port="2" to-layer="105" to-port="0" />
		<edge from-layer="103" from-port="0" to-layer="104" to-port="0" />
		<edge from-layer="104" from-port="1" to-layer="105" to-port="1" />
		<edge from-layer="105" from-port="2" to-layer="106" to-port="1" />
		<edge from-layer="106" from-port="2" to-layer="107" to-port="0" />
		<edge from-layer="107" from-port="1" to-layer="110" to-port="0" />
		<edge from-layer="107" from-port="1" to-layer="121" to-port="1" />
		<edge from-layer="108" from-port="0" to-layer="109" to-port="0" />
		<edge from-layer="109" from-port="1" to-layer="110" to-port="1" />
		<edge from-layer="110" from-port="2" to-layer="113" to-port="0" />
		<edge from-layer="111" from-port="0" to-layer="112" to-port="0" />
		<edge from-layer="112" from-port="1" to-layer="113" to-port="1" />
		<edge from-layer="113" from-port="2" to-layer="114" to-port="0" />
		<edge from-layer="114" from-port="1" to-layer="117" to-port="0" />
		<edge from-layer="115" from-port="0" to-layer="116" to-port="0" />
		<edge from-layer="116" from-port="1" to-layer="117" to-port="1" />
		<edge from-layer="117" from-port="2" to-layer="120" to-port="0" />
		<edge from-layer="118" from-port="0" to-layer="119" to-port="0" />
		<edge from-layer="119" from-port="1" to-layer="120" to-port="1" />
		<edge from-layer="120" from-port="2" to-layer="121" to-port="0" />
		<edge from-layer="121" from-port="2" to-layer="122" to-port="0" />
		<edge from-layer="122" from-port="1" to-layer="123" to-port="0" />
		<edge from-layer="122" from-port="1" to-layer="133" to-port="0" />
		<edge from-layer="123" from-port="1" to-layer="127" to-port="0" />
		<edge from-layer="124" from-port="0" to-layer="127" to-port="1" />
		<edge from-layer="125" from-port="0" to-layer="127" to-port="2" />
		<edge from-layer="126" from-port="0" to-layer="127" to-port="3" />
		<edge from-layer="127" from-port="4" to-layer="132" to-port="0" />
		<edge from-layer="128" from-port="1" to-layer="131" to-port="0" />
		<edge from-layer="129" from-port="0" to-layer="131" to-port="1" />
		<edge from-layer="130" from-port="0" to-layer="131" to-port="2" />
		<edge from-layer="131" from-port="3" to-layer="132" to-port="1" />
		<edge from-layer="132" from-port="2" to-layer="133" to-port="1" />
		<edge from-layer="133" from-port="2" to-layer="134" to-port="1" />
		<edge from-layer="134" from-port="2" to-layer="137" to-port="0" />
		<edge from-layer="135" from-port="0" to-layer="137" to-port="1" />
		<edge from-layer="136" from-port="0" to-layer="137" to-port="2" />
		<edge from-layer="137" from-port="3" to-layer="139" to-port="0" />
		<edge from-layer="137" from-port="3" to-layer="150" to-port="0" />
		<edge from-layer="138" from-port="0" to-layer="149" to-port="0" />
		<edge from-layer="139" from-port="1" to-layer="142" to-port="0" />
		<edge from-layer="139" from-port="1" to-layer="145" to-port="0" />
		<edge from-layer="139" from-port="1" to-layer="166" to-port="0" />
		<edge from-layer="140" from-port="0" to-layer="142" to-port="1" />
		<edge from-layer="141" from-port="0" to-layer="142" to-port="2" />
		<edge from-layer="142" from-port="3" to-layer="169" to-port="0" />
		<edge from-layer="142" from-port="3" to-layer="146" to-port="0" />
		<edge from-layer="143" from-port="0" to-layer="145" to-port="1" />
		<edge from-layer="144" from-port="0" to-layer="145" to-port="2" />
		<edge from-layer="145" from-port="3" to-layer="146" to-port="1" />
		<edge from-layer="145" from-port="3" to-layer="171" to-port="0" />
		<edge from-layer="146" from-port="2" to-layer="148" to-port="0" />
		<edge from-layer="147" from-port="0" to-layer="148" to-port="1" />
		<edge from-layer="148" from-port="2" to-layer="149" to-port="1" />
		<edge from-layer="149" from-port="2" to-layer="150" to-port="1" />
		<edge from-layer="150" from-port="2" to-layer="153" to-port="0" />
		<edge from-layer="151" from-port="0" to-layer="152" to-port="0" />
		<edge from-layer="152" from-port="1" to-layer="153" to-port="1" />
		<edge from-layer="153" from-port="2" to-layer="155" to-port="0" />
		<edge from-layer="154" from-port="0" to-layer="155" to-port="1" />
		<edge from-layer="155" from-port="2" to-layer="158" to-port="0" />
		<edge from-layer="155" from-port="2" to-layer="159" to-port="1" />
		<edge from-layer="156" from-port="0" to-layer="157" to-port="0" />
		<edge from-layer="157" from-port="1" to-layer="158" to-port="1" />
		<edge from-layer="158" from-port="2" to-layer="159" to-port="0" />
		<edge from-layer="159" from-port="2" to-layer="161" to-port="0" />
		<edge from-layer="160" from-port="0" to-layer="161" to-port="1" />
		<edge from-layer="161" from-port="2" to-layer="163" to-port="0" />
		<edge from-layer="162" from-port="0" to-layer="163" to-port="1" />
		<edge from-layer="163" from-port="2" to-layer="173" to-port="0" />
		<edge from-layer="164" from-port="0" to-layer="166" to-port="1" />
		<edge from-layer="165" from-port="0" to-layer="166" to-port="2" />
		<edge from-layer="166" from-port="3" to-layer="172" to-port="0" />
		<edge from-layer="167" from-port="0" to-layer="172" to-port="1" />
		<edge from-layer="168" from-port="0" to-layer="169" to-port="1" />
		<edge from-layer="169" from-port="2" to-layer="172" to-port="2" />
		<edge from-layer="170" from-port="0" to-layer="171" to-port="1" />
		<edge from-layer="171" from-port="2" to-layer="172" to-port="3" />
		<edge from-layer="172" from-port="4" to-layer="173" to-port="1" />
		<edge from-layer="173" from-port="2" to-layer="174" to-port="0" />
		<edge from-layer="174" from-port="1" to-layer="175" to-port="0" />
		<edge from-layer="175" from-port="1" to-layer="183" to-port="0" />
		<edge from-layer="175" from-port="1" to-layer="176" to-port="0" />
		<edge from-layer="176" from-port="1" to-layer="180" to-port="0" />
		<edge from-layer="177" from-port="0" to-layer="180" to-port="1" />
		<edge from-layer="178" from-port="0" to-layer="180" to-port="2" />
		<edge from-layer="179" from-port="0" to-layer="180" to-port="3" />
		<edge from-layer="180" from-port="4" to-layer="182" to-port="0" />
		<edge from-layer="181" from-port="0" to-layer="182" to-port="1" />
		<edge from-layer="182" from-port="2" to-layer="183" to-port="1" />
		<edge from-layer="183" from-port="2" to-layer="192" to-port="0" />
		<edge from-layer="183" from-port="2" to-layer="188" to-port="0" />
		<edge from-layer="184" from-port="0" to-layer="188" to-port="1" />
		<edge from-layer="185" from-port="0" to-layer="188" to-port="2" />
		<edge from-layer="186" from-port="0" to-layer="187" to-port="0" />
		<edge from-layer="187" from-port="1" to-layer="188" to-port="3" />
		<edge from-layer="188" from-port="4" to-layer="191" to-port="0" />
		<edge from-layer="189" from-port="0" to-layer="190" to-port="0" />
		<edge from-layer="190" from-port="1" to-layer="191" to-port="1" />
		<edge from-layer="191" from-port="2" to-layer="193" to-port="0" />
		<edge from-layer="192" from-port="1" to-layer="193" to-port="1" />
		<edge from-layer="193" from-port="2" to-layer="194" to-port="0" />
	</edges>
	<rt_info>
		<MO_version value="2023.1.0-12185-9e6b00e51cd-releases/2023/1" />
		<Runtime_version value="2023.1.0-12185-9e6b00e51cd-releases/2023/1" />
		<conversion_parameters>
			<input_model value="DIR/model.onnx" />
			<is_python_api_used value="False" />
			<output_dir value="DIR" />
		</conversion_parameters>
		<legacy_frontend value="False" />
		<model_info>
			<image_shape value="256 256" />
			<image_threshold value="9.91893" />
			<labels value="Normal Anomaly" />
			<mean_values value="123.675 116.28 103.53" />
			<model_type value="AnomalyDetection" />
			<normalization_scale value="26.6754" />
			<orig_height value="256" />
			<orig_width value="256" />
			<pixel_threshold value="11.655" />
			<reverse_input_channels value="YES" />
			<scale_values value="58.395 57.120000000000005 57.375" />
			<task value="segmentation" />
		</model_info>
	</rt_info>
</net>
